model/SpikeLog/experimental_results/bgl/bgl/100/prolog/prolog_5.pth (torch, 327601 bytes, 22 tensors)

spike_rnn.fc1.weight f4 [128, 300]
000000 0a 16 95 bc 78 dd 42 3d 09 4c 23 3d c0 1a 3b 3d
       -0.018198986 0.04757449 0.039867435 0.045679808
000010 8f f5 d0 bc e5 74 23 3c e7 07 1e 3d 48 69 1b bd
       -0.025507716 0.0099766 0.038581755 -0.0379422
000020 ab 03 06 bd 91 9a f3 3c 57 5c 97 3c 56 af 5c 3d
       -0.03271834 0.029736789 0.018476648 0.05387815
000030 4f ad 2a bd 04 ff c0 bc 91 55 45 3d 6e 03 a8 bc
       -0.041669186 -0.0235591 0.048177306 -0.020509448
000040 2d 0c 93 bb e6 2d c8 bb fd d6 6a bd cf c7 1d 3d
       -0.0044875355 -0.006108987 -0.057333935 0.03852063
000050 05 aa 07 3d 17 2a 25 bc 75 8f cc bc 81 f7 51 3d
       0.033121128 -0.010080836 -0.02497075 0.05126143
000060 8b af c0 bc 48 ec 12 3d de ae bd bc fd e1 42 3d
       -0.023521205 0.035869867 -0.023154672 0.0475788
000070 5e fa ce bc d0 40 11 bd ac b5 39 bc 1a e2 15 3d
       -0.025265869 -0.0354622 -0.011334818 0.03659258
000080 a8 90 36 bd a5 41 69 3c e7 a8 f0 bc 0a 84 e5 bc
       -0.04457155 0.014236842 -0.029377414 -0.028017063
000090 99 a9 bd 3c 14 41 0b bd 85 8a b9 bc bb d4 32 bd
       0.02315216 -0.03399761 -0.02264906 -0.043659907
0000a0 3e ee 0b 3d 78 1c 10 3d 55 31 59 3b 78 1f 59 bd
       0.034162752 0.0351834 0.0033140976 -0.053008527
0000b0 18 59 f1 3c 03 f6 04 3d 8c af 46 3d 1e 5d ab bc
       0.029461429 0.032461178 0.04850726 -0.020918425
0000c0 ea 2a 48 bc dc 6f 3a 3d a4 ff 09 3c 14 b7 91 3c
       -0.012217263 0.045516834 0.008422766 0.017787494
0000d0 8f 82 15 3d ac 7e c0 ba 92 6b 31 bc 7a 0b 01 bd
       0.036501464 -0.0014686189 -0.010828869 -0.031505086
0000e0 44 a6 1a bb 31 11 4b 3d 99 f4 52 bd 91 13 ed bc
       -0.0023597637 0.049576942 -0.051502798 -0.028939994
0000f0 05 05 cf 3b a7 67 b3 3b 4d e0 3e 3d 0f b4 26 3b
       0.006317737 0.005475003 0.04660063 0.0025436913
000100 e1 75 72 3c 05 80 dd 3c 0f 09 18 bd 42 1b 50 bb
       0.014798612 0.027038584 -0.037118014 -0.0031754528
000110 66 f2 a8 bc f4 24 1a bc d0 89 82 bc 62 bb 2a bd
       -0.020623397 -0.009408224 -0.015934855 -0.04168261
000120 bc fa 30 bc aa 21 3e 3c 96 55 e7 3c 86 38 c4 bc
       -0.010801967 0.011604706 0.028239053 -0.023952734
000130 43 b6 a1 3c ee e5 d3 3c 25 77 1e 3d 35 f9 ed bc
       0.01974023 0.025866475 0.038687844 -0.029049495
000140 a3 50 2d bc 9f 26 1c 3d 6d 24 30 3d 69 df 96 bb
       -0.010578307 0.03812277 0.04300349 -0.0046042693
000150 db 14 7e bc 38 03 0f bd 6f 5e df bc 6c ea 2e 3b
       -0.015507902 -0.03491518 -0.02726671 0.002669002
000160 31 44 92 bc 29 46 aa 3c 02 d6 45 3d 3b b7 92 3c
       -0.017854782 0.020785408 0.048299797 0.017909637
000170 d0 ff 6e 3d 97 13 1a 3d 66 86 c2 3c 81 95 20 bd
       0.05834943 0.03761634 0.023745727 -0.039205078
000180 2d bc 3c 3d c2 53 56 bd 52 8c 40 3d 7f 36 83 bc
       0.046077896 -0.05232597 0.04700882 -0.016017197
000190 06 55 62 bc eb 7e e3 3c 44 19 13 bd aa b4 93 bc
       -0.0138142165 0.02777048 -0.035912767 -0.018030483
0001a0 06 b4 44 3c 3c c5 05 bc 68 91 46 bc f6 82 30 3d
       0.012005812 -0.0081647 -0.0121196285 0.043093644
0001b0 49 91 54 3c e4 86 2f bc f7 f0 9e 3c 7a c5 66 bc
       0.012974092 -0.010713313 0.01940201 -0.014085168
0001c0 c9 f5 5a bc 79 0b 04 bd 49 e9 6d 3d 67 60 1f 3d
       -0.013364264 -0.032237504 0.058083806 0.038910296
0001d0 44 c5 4e 3d 93 62 e4 3c 20 87 f1 bb 70 83 2d 3d
       0.050481096 0.027879035 -0.0073708445 0.042361677
0001e0 cc 0a 10 bd 9c 77 3b 3c 60 ea 18 bd e3 f5 75 3c
       -0.035166547 0.011442091 -0.037332892 0.015012237
0001f0 47 58 83 bc 8f cb b5 3c 80 c8 c6 bb 9d 5b 21 bd
       -0.016033305 0.02219179 -0.006066382 -0.03939401
000200 43 c6 60 bd 91 8c e0 3a 49 08 71 3d 4f 6f 43 bc
       -0.054876577 0.0017131736 0.058845792 -0.0119283935
000210 bd fe 5f 3d c0 c0 4f bc 8c ed ec bc e5 3a 33 bc
       0.054686297 -0.0126802325 -0.028921865 -0.0109393345
000220 dd 89 89 3a 62 0b 57 3d a9 91 b5 bc 93 d9 36 bc
       0.0010493357 0.05250109 -0.022164183 -0.011160272
000230 8d e9 76 b9 5d 11 00 bd 67 fb 32 bd e0 e0 bd bc
       -0.00023547393 -0.03126656 -0.043696787 -0.023178518
000240 18 f3 20 bb 67 78 77 3c 9d a1 08 3d b2 7e 31 bd
       -0.0024558958 0.01510439 0.03335725 -0.043333717
000250 50 54 d2 3c f6 58 57 3c b2 fb 60 bd 39 c4 06 3d
       0.025674969 0.0131437685 -0.054927535 0.032901976
000260 50 3e c4 bb 06 6a f3 bb de f7 3c 3c 2e 59 0d bd
       -0.0059888735 -0.0074284105 0.0115337055 -0.034508877
000270 1d a2 1d 3d 5a 5e 02 bd 12 a9 27 bd 83 73 06 bd
       0.03848468 -0.031828262 -0.040932722 -0.032825004
000280 cb 39 dc bb fa 69 a7 3c 14 dc 90 3c 40 72 fe 3c
       -0.0067207566 0.020436276 0.017683066 0.031060338
000290 12 d2 11 3d 19 cb cc bc fc 05 dd 3b c9 c1 20 bd
       0.03560073 -0.024999188 0.006745098 -0.039247308
0002a0 cf 60 fe ba 83 a5 c9 bc 04 93 b4 3c ae c8 15 3d
       -0.0019407513 -0.024615055 0.022042759 0.036568336
0002b0 8a c2 0e 3d 61 04 21 bc 3c e7 36 3d a2 a1 4e 3d
       0.034853496 -0.009827704 0.044654116 0.050447114
0002c0 98 02 61 3c bf 4a 36 bd eb 92 67 3c 5e 30 00 bd
       0.013733529 -0.044504877 0.014134149 -0.031296127
0002d0 df 65 4e 3c e3 51 43 bc e2 c8 0b 3d f5 6a c5 bc
       0.01259753 -0.011921379 0.034127124 -0.024098853
0002e0 a5 1f 5e 3d 8f ec e6 bb 26 fd 58 bc 90 c1 39 3d
       0.054229397 -0.007047243 -0.013243949 0.04535061
0002f0 92 aa 1d bb db 55 10 3d 01 db 2c 3b ed f9 86 bc
       -0.0024057967 0.03523813 0.0026375654 -0.016476596
000300 4b 9a 39 3c 58 47 1a 3d fd af f3 3b f0 19 60 bd
       0.01132829 0.037665695 0.007436751 -0.054712236
000310 8c d2 c4 3c 08 bc 17 3d dc 74 06 3d ef 36 6b 3a
       0.024026178 0.037044555 0.03282629 0.00089727243
000320 3d fc da 3b 41 1e 51 3d ec aa 2a bc 57 38 4f 3d
       0.006682901 0.051054243 -0.0104167275 0.05059084
000330 33 ee e9 3c 38 cb 1a bd fa 31 21 bd b3 1f 49 bd
       0.028555965 -0.03779146 -0.039354302 -0.049102496
000340 48 23 33 3d 2a 0a f3 bc e9 3e bb 3c df 31 b1 bb
       0.04373482 -0.029667933 0.022857146 -0.0054075564
000350 26 43 5f 3d ad b9 2d bc 20 fb 1c bd 5e d9 1b 3d
       0.054507397 -0.010603351 -0.03832543 0.038049094
000360 6d fd c3 3b af 61 a2 bc 6b 1f 5f bc 7e b2 98 3c
       0.0059811384 -0.01982197 -0.0136183305 0.0186398
000370 69 da 5a 3d d3 c9 58 bd 7d 79 b8 3c 84 07 a0 3c
       0.05343095 -0.05292685 0.022518868 0.019534834
000380 cb 55 5c bd 0f 46 41 3d 85 6b 2f bd bd 8f ac bc
       -0.053792756 0.047185954 -0.042827148 -0.021064634
000390 41 e0 a7 3c 51 86 ca 3b a8 17 4e bd 3f ee e1 bc
       0.020492675 0.0061805625 -0.05031553 -0.027579425
0003a0 72 b4 47 bc ed c0 8a 3b d0 43 65 bc cc 3e 05 bd
       -0.012189018 0.0042344243 -0.013993219 -0.03253059
0003b0 d9 3a 0c 3d 27 8a 56 bd 00 96 29 3c aa c7 55 bd
       0.03423581 -0.052377846 0.010350704 -0.052192368
0003c0 60 8d 48 bd af ab 28 3d 6c cd cb bc 48 3c 09 bd
       -0.04896295 0.041179355 -0.024878226 -0.033504754
0003d0 cb 42 55 3c 08 46 e1 3c a9 ad 41 bd 0b 02 0e bd
       0.013016413 0.027499214 -0.047284756 -0.034669917
0003e0 55 3c 54 3d 69 b7 3a bd c2 50 5b bc 29 d3 97 bc
       0.05181535 -0.04558507 -0.013385953 -0.018533306
0003f0 cb 14 6c bc 07 e1 f3 3c a4 59 ab 3c 0d d0 b1 3c
       -0.014409254 0.029770387 0.020916767 0.021705652

spike_rnn.fc1.bias f4 [128]
000000 10 8a e4 3c bf 1c ef 3c a7 cd 2e 3d e0 e4 11 bd
       0.027897865 0.029188512 0.042676594 -0.035618663
000010 e9 f1 e8 3c d0 1f 34 3a ab fe 3c bd c2 e9 fa 3c
       0.028435664 0.00068711955 -0.046141308 0.030629043
000020 6d d8 ab 3c 20 6e ea bc 0b f9 48 bc 01 92 3a 3d
       0.020977223 -0.028616965 -0.012266408 0.045549396
000030 3c 3f f4 bc 09 0f 93 bc 54 6f 49 bd a2 9d 8b bc
       -0.029815309 -0.017951505 -0.049178436 -0.017042939
000040 37 89 29 3d 31 07 c4 bb 32 01 a2 bc b1 fd 95 3c
       0.041390624 -0.0059823026 -0.01977596 0.018309446
000050 ac e4 41 3d bd 6e 97 3b 19 a4 34 3d f4 80 d9 3c
       0.04733722 0.0046213553 0.04410181 0.026550747
000060 3b 73 71 bc 30 9f 22 3d 73 a5 38 3d 20 8b 05 3d
       -0.014736946 0.039702594 0.04507966 0.032603383
000070 82 ca 69 bd 78 b1 40 bc 7f a3 46 3d b0 cd bd 3c
       -0.057077892 -0.011761062 0.048495766 0.023169369
000080 3e d1 1e bd 39 9b 84 3b 4e 8d 1b bc 6c 90 55 3d
       -0.038773768 0.0040468243 -0.009494139 0.052139685
000090 c3 cd f7 3c 6e ad 6b bd 24 64 ca bc be e2 c7 bc
       0.030249482 -0.057538442 -0.024705954 -0.024400111
0000a0 23 61 bc 3c 2e 6a 3f 3c 6a f0 f0 3c d1 1c ce 3c
       0.022995537 0.01168303 0.029411513 0.025160225
0000b0 6a ac e1 3b 58 6a ab bc 36 7d f9 bb c4 b3 2d bd
       0.0068870084 -0.020924732 -0.0076138033 -0.042407766
0000c0 70 a1 26 bd 14 73 42 bd 50 3a 60 bd 93 ca c9 3b
       -0.040681303 -0.04747303 -0.05474311 0.006158182
0000d0 58 c5 d6 bc 4b bf 39 bb 76 c1 09 3b a2 af 8b bc
       -0.026217148 -0.002834278 0.0021019853 -0.017051522
0000e0 15 e7 99 bc a4 56 9d 3c af 90 4f bd ac 4d 26 bd
       -0.018786946 0.019206353 -0.05067509 -0.040601417
0000f0 f0 90 9c 3c da fc 08 3d 66 a1 41 bc 63 75 dd ba
       0.01911208 0.033444263 -0.011818266 -0.0016895946
000100 22 5b 64 bc 2e 55 b1 bc 21 95 4f bd 65 05 88 3c
       -0.013937743 -0.021647062 -0.05067933 0.016604135
000110 96 4a ad bc 5c 3b 5e bd c4 f5 d3 bc c8 0c 54 bd
       -0.02115373 -0.05425583 -0.025874026 -0.05177
000120 99 7c d5 3c 64 6e 2f 3d bf 90 3d 3c 32 86 c9 3c
       0.02606039 0.042829886 0.011570155 0.024600122
000130 c5 97 90 bc 8a 88 33 bd 16 a6 46 3d 4e 2c d6 3c
       -0.017650494 -0.043831386 0.048498236 0.026144173
000140 bd 35 f9 bc c9 89 2d 3d a1 66 b4 ba b7 fd b8 3c
       -0.030421132 0.04236773 -0.0013763496 0.022581918
000150 13 ea db 3b 44 a0 4b bb 77 6a b4 3c 66 16 31 bb
       0.0067112534 -0.0031070868 0.022023423 -0.0027021407
000160 da 01 e2 bb 21 11 20 bd 83 de 2d 3d 93 13 ec bb
       -0.0068971934 -0.039078835 0.04244853 -0.007204482
000170 e6 00 47 bd d0 c5 df bb 18 6e dd bc d3 43 8d 3c
       -0.04858484 -0.006829001 -0.027030036 0.017244255
000180 f2 a8 44 3d c1 3e cb 3b ad 6a 41 3d 75 2e ba 3c
       0.04801268 0.006202549 0.047220875 0.02272723
000190 c1 e0 51 3d e1 d3 84 3c f8 8b 57 3d 4e c4 00 bd
       0.051239733 0.016214313 0.05262372 -0.03143721
0001a0 b2 91 40 3c 01 3c 0d bc 63 0e 4f 3c e0 1c 0a 3b
       0.0117534865 -0.008620263 0.012637707 0.002107434
0001b0 38 4c 66 bc e0 2b b1 bc b2 db f6 bc f1 42 17 bd
       -0.014056258 -0.021627367 -0.030134056 -0.036929075
0001c0 b1 c7 48 bd a3 0a c3 3c f3 7c 0f bd 1b f8 22 3d
       -0.049018566 0.023808783 -0.03503127 0.039787393
0001d0 13 0e b3 3c 4e 71 0b bc 6b 85 40 3d 19 b7 0b 3d
       0.021857297 -0.008510901 0.047002237 0.034110162
0001e0 e6 ce 15 3c f4 13 82 3c 9b 20 de 39 c8 44 67 bd
       0.009143567 0.015878655 0.00042367433 -0.05646208
0001f0 d9 54 ad 3c b6 87 ef 3c 92 33 42 3d 89 c5 73 3c
       0.021158623 0.029239517 0.047412463 0.014878639

spike_rnn.lif1.threshold f4 [128]
000000 26 77 7a 3f a7 67 21 3f b0 73 95 3e f3 f1 3c 3f
       0.97838056 0.63048786 0.29189825 0.73806685
000010 1b bb a3 3e 9a 99 fa 3e 77 cc 61 3f e2 79 45 3f
       0.31978688 0.48945314 0.88202614 0.77139103
000020 82 89 15 3f ed 5f 1d 3f 0f 3b 45 3e f1 cb 18 3f
       0.58412945 0.61474496 0.1926081 0.5968619
000030 b5 64 4b 3f 18 0b 8c 3e e9 ae 1b 3f bb 28 78 3f
       0.7945054 0.27352214 0.60813767 0.9693715
000040 c5 11 5b 3f 7b be 64 3f ca f9 7d 3d ee 4d 55 3f
       0.8557399 0.8935315 0.062005796 0.83322036
000050 2f 35 af 3e 8d 4a 12 3f a1 07 07 3f 79 58 23 3f
       0.34220263 0.57145005 0.52746016 0.63806874
000060 02 1f 25 3f 95 01 f4 3d f7 86 7c 3f 2d d9 20 3e
       0.6450044 0.11914364 0.9864344 0.15707846
000070 1e 5e ec 3e 19 4b 6f 3f f7 20 58 3e 5c c7 27 3f
       0.46165556 0.93473965 0.21106325 0.65538573
000080 96 15 dd 3d fb 93 1f 3f b8 5a 6d 3f ef f6 14 3f
       0.10795133 0.62335175 0.9271655 0.5818929
000090 19 57 04 3f 04 99 78 3f 07 d9 ca 3b d5 ee d0 3e
       0.516954 0.97108483 0.0061904225 0.40807214
0000a0 ee 2c f7 3e 93 1f 62 3e 2d 48 f6 3d 93 ea 5c 3f
       0.48276466 0.22082357 0.12025485 0.8629543
0000b0 a0 c9 79 3c 52 86 4d 3f 79 e3 73 3f e3 ad 46 3e
       0.015245825 0.8028308 0.9526897 0.1940227
0000c0 24 c0 84 3e 63 a7 cb 3e 1c 71 53 3d cc cc f2 3d
       0.25927842 0.39776143 0.05162154 0.11855468
0000d0 a2 2f cc 3b d0 b6 a7 3d 8c a7 49 3f db 41 07 3f
       0.006231264 0.081891656 0.7877128 0.5283486
0000e0 07 bf 46 3f 19 79 07 3f cb 2b 81 3e b1 11 79 3f
       0.77635235 0.52919155 0.25228724 0.9729262
0000f0 65 6c dc 3e 51 80 1a 3c df 8b 7b 3f 1d b6 25 3f
       0.43051448 0.009430007 0.982603 0.6473101
000100 44 d9 52 3f 84 90 19 3f 71 60 67 3f a6 21 39 3f
       0.8236277 0.5998614 0.9038153 0.7231697
000110 d5 5c 5c 3f 22 f0 22 3f a3 93 19 3e 1c 9a 04 3f
       0.8607915 0.63647664 0.14997725 0.5179765
000120 e7 6a 04 3f 60 43 59 3f 15 34 77 3f 3b 1b 07 3f
       0.5172562 0.8486843 0.96563846 0.52775925
000130 37 3f 46 3f 1e 3a c3 3e ce 06 48 3f 0b 7d 48 3f
       0.7744021 0.38130277 0.78135383 0.783158
000140 8f e0 0b 3f 68 0a 74 3e 2a d7 71 3f 70 4e 52 3f
       0.54639524 0.23832095 0.9446894 0.82150936
000150 c0 18 44 3f 2e 2f 48 3d e0 73 5b 3f 28 a2 f1 3c
       0.76600266 0.04887312 0.85723686 0.029496267
000160 50 84 32 3f bd 06 b6 3d 0e 7c 2e 3f 16 b4 f2 3e
       0.6973314 0.08888004 0.6815804 0.4740302
000170 17 e2 bc 3e a6 47 16 3e 09 61 0f 3f e5 7f 6e 3f
       0.36891243 0.14675769 0.5600744 0.931639
000180 0e 4b c5 3d 84 9e f4 3e 7b 6b 28 3f 56 73 25 3f
       0.09633456 0.47777188 0.65789 0.64629114
000190 80 2b 37 3f 86 7d 13 3f d9 02 57 3f 74 be 44 3f
       0.7155075 0.5761341 0.8398872 0.7685311
0001a0 d2 0f 25 3f 13 57 f9 3e ad db 62 3d ae b7 18 3f
       0.64477265 0.48699245 0.05538528 0.5965527
0001b0 0d 47 e5 3d 0a 4c 76 3f 15 2b 31 3e 96 32 3b 3e
       0.111951925 0.96209776 0.1730159 0.18281016
0001c0 a3 ae 0c 3d 23 48 05 3f 5e 81 00 3f 4a e1 43 3f
       0.034346234 0.52063197 0.501974 0.7651564
0001d0 e1 29 f1 3e b3 c2 7b 3f 67 e5 e0 3e 3a 12 03 3f
       0.47102264 0.9834396 0.4392502 0.51199687
0001e0 ec 66 ba 3e 67 6a d3 3c 29 fd ab 3e 3b fd 81 3c
       0.36406648 0.025807573 0.33591583 0.01586782
0001f0 d3 02 42 3f 6a 0e 85 3e 9d 6d 8b 3e 5c a8 40 3e
       0.7578556 0.2598756 0.27232066 0.18814224

spike_rnn.lif1.beta f4 [128]
000000 3f 30 9b 3e 41 e2 ed 3d e6 da 7e 3f bf f5 38 3e
       0.30310246 0.1161542 0.9955276 0.18062495
000010 39 6b 14 3f 0c e2 2c 3d 23 21 2f 3f 3c 9c 7c 3e
       0.5797611 0.042207763 0.6840994 0.24668974
000020 b6 05 d9 3e 9a e2 03 3f 17 d3 65 3f 83 4b f8 3e
       0.4238717 0.5151764 0.8977522 0.4849511
000030 8c 4c 7c 3f f0 ed 37 3f 96 36 64 3f 9c 8c 35 3f
       0.985543 0.7184744 0.8914579 0.7091768
000040 d8 fc 00 3e c0 bc 2b 3f e8 21 00 3f 64 00 70 3f
       0.12596452 0.67084885 0.50051737 0.93750596
000050 07 11 7b 3e 78 18 35 3f 45 0d 9f 3e a0 6a 1b 3f
       0.24518214 0.7074046 0.3106481 0.6070957
000060 da 8c 54 3f d6 56 41 3f 7c 8f f1 3e 64 b3 5b 3f
       0.8302742 0.75523126 0.47179782 0.85820603
000070 52 cb 42 3f d4 ba 3b 3f d2 41 7b 3f ab 1a bb 3e
       0.7609149 0.7333195 0.9814731 0.36543784
000080 23 15 0b 3f c8 90 76 3f 87 42 57 3f 4d 74 6e 3f
       0.5432913 0.9631467 0.8408589 0.9314621
000090 4a 8f d7 3e 2d 20 b5 3d 90 6a bb 3e 78 20 41 3f
       0.42101508 0.08844028 0.36604738 0.7544017
0000a0 fd 2a 3c 3f 42 47 53 3f 46 4d 1c 3f 73 49 bc 3e
       0.73503095 0.82530606 0.6105541 0.36774787
0000b0 10 eb bd 3e d7 74 4a 3f 00 79 d7 3e a7 9f da 3d
       0.370934 0.79084533 0.42084503 0.106749825
0000c0 52 84 1a 3f f6 ca 0a 3e 20 93 43 3f d1 60 0d 3e
       0.60358155 0.13553986 0.7639637 0.13806464
0000d0 79 f9 5d 3f 04 b5 c8 3d 86 17 76 3f 7d 94 1d 3f
       0.8670879 0.09800151 0.96129644 0.615547
0000e0 09 40 d9 3e 90 b8 02 3f 7a c2 6d 3f 43 94 28 3f
       0.42431667 0.5106287 0.9287487 0.6585123
0000f0 9a d2 7d 3f 63 3a b0 3d b7 fe 6d 3f ed ea 4c 3f
       0.9914948 0.086048864 0.9296679 0.8004597
000100 3d 36 37 3d df 82 0f 3f 15 4c 85 3e b6 5a 70 3f
       0.04472946 0.5605907 0.26034608 0.93888414
000110 b9 cf 62 3f 0d 80 3c 3f 29 89 5a 3f 31 5e 64 3f
       0.8859821 0.7363289 0.8536554 0.89206225
000120 74 16 3b 3f c5 70 0d 3f df 62 b5 3e 73 53 4f 3f
       0.73081136 0.552502 0.35426995 0.8098671
000130 ae 9d 1b 3f 32 fa a5 3e 52 88 f7 3e d7 25 4e 3f
       0.60787475 0.32417446 0.48346192 0.8052649
000140 0d 8f e7 3e a9 42 12 3f 56 86 6c 3f 20 a1 25 3f
       0.45226327 0.57132965 0.9239248 0.6469898
000150 53 c0 29 3f a5 e1 20 3e 77 77 b1 3e fc 88 34 3f
       0.6630909 0.15711077 0.34661457 0.7052152
000160 ff bc 3d 3f f0 4a 27 3d ed 70 f6 3d a9 5b 0b 3f
       0.7411651 0.04084295 0.12033258 0.5443674
000170 af ed 32 3f 8b 22 5d 3e b4 09 02 3f bb c5 9a 3d
       0.69893926 0.21595208 0.50796056 0.07557245
000180 c0 ae 7e 3f 11 31 57 3f be 43 92 3e 85 ec 77 3f
       0.994854 0.84059244 0.28567308 0.96845275
000190 f1 36 29 3f 1f 81 ab 3e 74 04 53 3f 16 b0 5e 3f
       0.6609946 0.3349695 0.8242867 0.86987436
0001a0 ab d4 da 3c 1b fc 63 3f c3 70 07 3f b3 91 43 3f
       0.026712736 0.8905656 0.52906436 0.76394194
0001b0 f0 4f a2 3e b6 6d 4a 3f 33 17 a1 3e 6d 49 90 3d
       0.31701612 0.79073656 0.31463012 0.07045255
0001c0 f9 07 0c 3f 15 d0 e0 3e be 27 6e 3f 19 f3 0e 3f
       0.54699665 0.43908754 0.9302939 0.5583969
0001d0 4b 30 12 3e e0 48 59 3f 63 05 00 3f ff f4 23 3f
       0.14276235 0.84876823 0.5000822 0.6404571
0001e0 62 9b 6f 3d 10 07 24 3f 18 11 46 3f 01 fa 1c 3f
       0.058497794 0.64073277 0.77369833 0.61318976
0001f0 e8 7f ee 3e 74 40 55 3f 24 70 35 3f 73 82 50 3e
       0.4658196 0.8330147 0.7087424 0.20362262

spike_rnn.lif1.recurrent.weight f4 [128, 128]
000000 18 80 29 3d c7 04 88 bd ee ff 98 bd d1 82 19 bd
       0.041381925 -0.06641536 -0.0747069 -0.037478272
000010 af 03 18 3d f7 81 98 bd 6c fb d3 bc d5 57 37 bc
       0.037112888 -0.07446664 -0.025876723 -0.011190374
000020 ed 72 b0 3d 4b 60 5e 3d f1 d2 ac bd 2f d7 5b bd
       0.0861567 0.05429105 -0.084386714 -0.053672012
000030 1c ea 25 3b 7d b9 38 bd 06 9d 89 3d 48 c6 5e bc
       0.0025316542 -0.04509877 0.06719403 -0.013597079
000040 f0 5f 3c bc 4d 77 ad 3d 6a 43 09 3c 71 5e 6e ba
       -0.011497483 0.084700204 0.008377889 -0.00090930524
000050 0a 99 0a 3d c1 2f 8a 3b ad c2 09 bd 19 f2 ac 3d
       0.033837356 0.0042171185 -0.033632923 0.08444614
000060 78 78 01 3d b6 85 3d bd 8e aa b2 bc a4 89 54 bc
       0.03160903 -0.046270095 -0.021809842 -0.012972269
000070 eb db 8e bc b7 de a4 bd 25 e3 b2 bd c4 1e 15 bd
       -0.01743885 -0.08050292 -0.08734731 -0.036406294
000080 fe e7 4f bd 24 fc f9 bb b5 1a 50 bc 26 b8 88 bd
       -0.050758354 -0.0076289345 -0.01270168 -0.066757485
000090 db f2 f1 3c a5 b2 7a 3d 39 db 6f bc 6d 49 00 bc
       0.029534748 0.061205525 -0.014639669 -0.007830006
0000a0 88 cd 64 bd 2e 07 09 bd 86 06 b7 3d da ae d1 3c
       -0.055860072 -0.033454113 0.08936791 0.025596071
0000b0 fa 42 1c 3c ff 4c 85 bd ac 12 79 3c 90 9a d1 3b
       0.009537453 -0.065088265 0.015202206 0.006396599
0000c0 a0 d8 5a bb 46 c3 a0 bd d5 96 b1 bd 3b 00 d9 3b
       -0.0033393279 -0.078497455 -0.08671347 0.006622342
0000d0 74 18 95 bd bb eb 97 bc 8c f4 d3 3c a6 2d 7b 3d
       -0.07280055 -0.018545022 0.025873445 0.06132283
0000e0 78 dd 72 3d 96 27 9e 3d df 26 15 3d a4 f8 cb 3c
       0.05929324 0.07722394 0.036414023 0.024898835
0000f0 74 50 4c bd ea 37 a5 bc 20 fa a7 3c 05 ae b6 3d
       -0.049881414 -0.020168263 0.020505011 0.0891991
000100 f8 de ca 3c bd 8a 9c 3d be ea fc 3b eb b2 67 bd
       0.024764523 0.0764365 0.007718413 -0.056567114
000110 68 90 7f 3d a4 b6 74 3c ab 3c 88 3c 3d cc 32 3d
       0.062393576 0.014936123 0.016630491 0.043651808
000120 8b b9 59 3d 83 14 7b bd 7a a2 ef bc 63 86 a5 bc
       0.053155463 -0.06129886 -0.02925228 -0.020205682
000130 9a 3d da bb 63 5d 5b bd 69 12 ee bc 74 9c 9c 3d
       -0.0066601755 -0.053555857 -0.029061513 0.076470286
000140 c5 10 67 3d 50 5b 2d bd 6a c9 92 3d a0 bd 9a bd
       0.056412477 -0.04232341 0.07167323 -0.07555699
000150 4a f0 d9 3b cf d9 ad 3c 27 25 de 3c 40 7e 22 3d
       0.006650959 0.021222023 0.027117325 0.039671183
000160 14 43 9d 3a d9 e0 e8 3c 93 2c 56 3d c4 ae 37 bd
       0.001199814 0.028427528 0.052288603 -0.044844404
000170 cd 5d 83 3d d4 f4 61 bc 03 75 7f bd 68 fa 3d bd
       0.064143755 -0.013791282 -0.06236745 -0.046381384
000180 e9 91 b1 bd 1d 47 a0 bc 0f aa 73 bd fd bc ae 3c
       -0.08670408 -0.01956516 -0.059488352 0.021330351
000190 e5 36 59 bd f7 16 b1 bc 49 a2 b6 3d 6d b7 12 bd
       -0.053030867 -0.021617396 0.08917672 -0.03581946
0001a0 9c 75 a8 3d da 31 5b 3d 89 45 8c bd ee 6d 15 bd
       0.08225557 0.05351434 -0.068492 -0.03648179
0001b0 67 7d 94 3a 92 04 34 3d c6 8f b0 3d 1b b3 34 3c
       0.0011328877 0.04394967 0.086211726 0.01102903
0001c0 f2 b0 cf 3c 69 79 21 bb 58 8e 11 bd ed 52 9d 3d
       0.025352929 -0.0024639016 -0.03553614 0.076818325
0001d0 08 bd 02 bd 95 ac 7b bd a3 35 95 bd 8a 1e 9b 3d
       -0.031918555 -0.061443884 -0.07285621 0.07574184
0001e0 ec 1f ac 3d 73 f6 6d bd f0 30 a7 3d 06 9a 89 bd
       0.08404526 -0.05809636 0.08163631 -0.06718831
0001f0 f6 af 44 3d 9e 6c 48 3d 77 68 36 3d 6b 90 4f bd
       0.048019372 0.04893171 0.04453322 -0.050674837
000200 56 29 de bc 3e 77 62 bd c7 81 a1 bc 2e bc 65 3d
       -0.02711932 -0.0552895 -0.019715203 0.056087665
000210 1c 4e 23 bd b3 3f 27 bd 6c 45 d2 3c ab a4 1d 3d
       -0.039869413 -0.040832233 0.025667869 0.038487118
000220 d4 1e ad bd 15 52 75 bd 8c e6 a3 bd 1f c1 9f bc
       -0.084531456 -0.059892733 -0.08002958 -0.019501267
000230 6d 05 57 bd 06 58 2e 3d b6 58 5d bd 9e 36 3f 3c
       -0.05249541 0.042564414 -0.05403968 0.011670737
000240 ba e7 b1 3b 21 9f a2 3d 78 e2 50 bc 65 ba 35 bd
       0.0054292353 0.07940508 -0.012749307 -0.044367213
000250 81 c2 87 bd ed cb 1c bc ac 12 bf 3c 91 21 79 3d
       -0.066288956 -0.009570104 0.023324333 0.060823027
000260 82 21 8a 3d 05 fd 5c 3d 47 06 6a bd 08 6f 6f 3d
       0.06744672 0.053952236 -0.057134893 0.058455497
000270 27 20 c9 bc 02 2c 9c 3c cb e8 8a 3d 07 00 4c bb
       -0.024551464 0.019063953 0.06782683 -0.0031127946
000280 7e e2 f2 3c e6 c3 5e 3d ce 37 1a 3d 81 8d b0 bd
       0.029649016 0.054386042 0.037650876 -0.0862074
000290 a3 68 36 bd 76 a4 b7 3b be 22 27 3d cb d6 59 bd
       -0.044533383 0.005604322 0.040804617 -0.05318336
0002a0 88 f6 8d 3c 7f 0d 7c bd cc e1 85 bd 32 53 2e bb
       0.01732947 -0.06153631 -0.06537208 -0.0026599881
0002b0 dc a5 2b 3d 91 11 a9 3d f1 30 68 3d 58 ae 6e 3c
       0.041906223 0.08255304 0.0566873 0.014567934
0002c0 8e 85 78 3c f1 88 93 bd 99 7c 1c bc a3 d4 7b bd
       0.015168561 -0.07203854 -0.009551191 -0.061482083
0002d0 2e be 09 bb 71 0a 41 3a 77 e7 22 bd 0a 3f 01 bd
       -0.0021017897 0.00073639216 -0.039771523 -0.03155426
0002e0 0e 68 31 bc 49 97 91 bc 10 0c 90 bc 88 93 72 3d
       -0.010828031 -0.017772334 -0.017583877 0.059222728
0002f0 ec ce 00 3c b6 4e 01 bd ef f8 10 3c 83 cb 1e bd
       0.007861834 -0.031569205 0.008848413 -0.038768303
000300 62 9f 31 3d 98 a9 29 3c 79 fe 54 3d 2d 3b 1a bd
       0.04336489 0.010355376 0.052000497 -0.03765409
000310 2d 30 04 bb 9a aa b4 bc cf dc 8e 3d 42 49 0b bd
       -0.0020170317 -0.022054005 0.0697571 -0.03400541
000320 4b 8f b3 bc aa d0 89 bd a2 55 9d bd b0 8c 96 3d
       -0.021918913 -0.06729253 -0.07682349 0.07351053
000330 cd 48 95 3d 74 b1 14 38 6a 12 2b 3b c4 aa 80 bd
       0.07289276 3.5451216e-05 0.0026103505 -0.06282571
000340 81 e2 61 3d 6a 4c 95 3d b9 0e 2e 3d 0c 6e 53 3b
       0.05514765 0.072899655 0.04249451 0.0032261638
000350 08 5b 6e 3d 5a ec 44 3d 58 12 48 3d b4 4b 7d 3b
       0.058192283 0.048076965 0.04884562 0.003864986
000360 77 37 30 3a ee 28 37 bd 02 20 45 3d 26 a2 85 bd
       0.0006722132 -0.044716768 0.04812623 -0.06525068
000370 49 fd b6 3d e4 7a 7e bd 15 fb 85 bc 47 06 91 3d
       0.08935029 -0.062128916 -0.016355077 0.070812754
000380 77 1e bf bc 0c c0 24 bc 64 ed 6e bd 00 cb be 3b
       -0.023329956 -0.010055553 -0.058331862 0.0058225393
000390 8f d6 98 bd 88 78 72 bc 64 71 15 3c 43 62 61 bd
       -0.07462799 -0.014799245 0.009121273 -0.05502535
0003a0 de 54 44 bb 13 3b a8 3d aa f5 af 3d ff 0e 93 3d
       -0.0029957811 0.082143925 0.085917786 0.07180595
0003b0 58 88 ae bd fc 48 14 bc b6 a8 33 3d 40 c4 a9 3d
       -0.08522099 -0.009050604 0.043862067 0.08289385
0003c0 ef e3 81 bd 75 3b 33 3d a5 8c 55 bc ab cc de 3c
       -0.06342303 0.043757875 -0.013034021 0.027197203
0003d0 d6 4b 61 bc 7c e7 35 3c 83 1e 77 bd 1f d0 5d bd
       -0.013750991 0.011102553 -0.060331833 -0.054153558
0003e0 77 51 76 3d f4 91 99 bd 59 ea ee 3c 29 94 b7 bc
       0.060136285 -0.074985415 0.02916448 -0.022409515
0003f0 49 21 34 ba 2b 81 2c 3d 38 2f d3 bc d4 4a e9 bc
       -0.0006871415 0.04211537 -0.025779352 -0.028478064

spike_rnn.lif1.recurrent.bias f4 [128]
000000 64 33 a4 bd 5a ed 70 3d 6c 6f ad 3c 87 29 ab 3d
       -0.080176145 0.058820106 0.021171294 0.0835753
000010 fd 74 9d 3c 87 66 66 3d 65 2b fd bc f4 e0 a4 bc
       0.019220823 0.05625012 -0.030904481 -0.020126797
000020 21 33 21 3d c8 12 9e 3d a9 a6 59 bd 2b d7 db 3b
       0.0393554 0.07718426 -0.053137455 0.0067089996
000030 a6 77 93 bc a3 3f 8b 3d 67 bf 27 3b d6 f8 8b bc
       -0.018001389 0.06799247 0.0025596262 -0.017086428
000040 e8 34 05 3d b5 98 c5 3c 63 f1 8c 3d ff 4c 98 bc
       0.03252116 0.024120668 0.06881978 -0.018591402
000050 ea e8 9d bd 62 87 27 3b 9b 3c 28 bc 76 27 a0 bb
       -0.077104405 0.0025562872 -0.010268356 -0.0048875166
000060 af 46 53 bd bf 1b 18 bd a5 c4 8a 3d ae 6d b7 bd
       -0.05158108 -0.037135836 0.06775788 -0.089564666
000070 25 b4 73 bc 79 06 6d 3c 9c 78 eb 3c 3c c4 a1 3d
       -0.014874493 0.014466875 0.028744034 0.07898757
000080 47 27 10 bd 55 06 6c bd fe 8f 9e 3c 49 2f 8c 3d
       -0.035193708 -0.057623226 0.01935577 0.068449564
000090 6b 75 e6 bc b5 43 68 3d 1d 93 29 bd 51 68 f9 bb
       -0.028132161 0.056705195 -0.041400064 -0.0076113124
0000a0 bc 27 67 bc 9d fb 9d bd 44 0d 7a bd 9a 46 67 bd
       -0.0141085945 -0.07714007 -0.061047807 -0.056463815
0000b0 ea f5 12 bd 22 ac 5f 3d f5 d9 ac 3b 1e 38 ef 3c
       -0.035879053 0.054607518 0.005275006 0.029201563
0000c0 54 d4 96 3d 7b f1 81 bd 91 79 02 bd 03 f7 19 ba
       0.07364717 -0.06344887 -0.031854216 -0.00058732944
0000d0 9e 82 80 3d 3b 2d 0d 3c 3e 32 4d 3d fa 1d 21 3d
       0.06274913 0.008616741 0.050096743 0.03933523
0000e0 c8 c2 10 3c 9d 9a 93 3d f8 c6 bd 3c 9d 3d 23 3d
       0.008835502 0.072072245 0.023166165 0.03985368
0000f0 84 98 d5 3c 0a bc 59 bd 18 85 1a 3d e4 10 27 3d
       0.026073702 -0.053157844 0.037724584 0.040787593
000100 ac b4 e7 3c 93 4c 6a 3d 23 8b b6 bd f0 47 1a bd
       0.028284393 0.057201933 -0.08913257 -0.03766626
000110 98 05 05 3d 0d a5 06 bd 8e 88 ab bd 4b c1 a4 bd
       0.032476038 -0.03287225 -0.08375655 -0.0804468
000120 40 ba 62 bd 98 0d 29 3b 65 ac 9a 3d e6 da 1c bd
       -0.055353403 0.0025795456 0.07552413 -0.038294695
000130 6b 0d 36 bb db a2 ae bd dc 4e 4d 3d 39 e9 23 bd
       -0.0027778994 -0.08527156 0.050124034 -0.04001734
000140 58 68 b5 3c 28 94 a0 3c 5e 80 84 3d 10 47 56 3d
       0.022144482 0.019601896 0.064697966 0.052313864
000150 93 02 7b bd ab e4 d9 bc e2 c0 a6 3d 1c d8 a0 bc
       -0.06128175 -0.026598295 0.08142258 -0.019634299
000160 a0 a8 f1 bc dd 38 07 bd cd 03 e1 bc c4 a0 b8 bd
       -0.029499352 -0.033013213 -0.027467633 -0.090150386
000170 d6 8c b3 3d bd 7d 33 bd b1 9c 72 3d 5c fe a7 3d
       0.08767097 -0.043821085 0.059231464 0.08202812
000180 f8 c1 94 bb ee 27 35 3d de f3 97 3d 3c 11 3e 3d
       -0.0045397244 0.044227533 0.07419561 0.046403155
000190 d1 a9 3a 3d 1a cc 53 bc c7 bd b6 3c a9 90 f1 bc
       0.045572106 -0.01292708 0.02230729 -0.029487925
0001a0 f4 72 a0 3c 1c 54 a4 3c cb 2e 55 3d f4 5f aa 3d
       0.019586064 0.020059638 0.05204658 0.08319083
0001b0 93 08 a3 3c 2a fb 2b 3d 76 6f 49 3d 03 ad 68 bd
       0.01990155 0.041987576 0.049178563 -0.05680562
0001c0 c2 b9 af 3d f1 fa 50 3c d3 e0 89 3d f9 96 65 3d
       0.08580352 0.012755142 0.06732335 0.056052182
0001d0 c4 a9 83 3d a4 c3 8f 3d 82 55 9b 3d 58 5f 4a 3c
       0.064288646 0.07019737 0.07584669 0.012351833
0001e0 c8 2e ae bc 91 fe a6 bd 87 28 31 3d 7f 94 72 3d
       -0.021262541 -0.081540234 0.04325154 0.05922365
0001f0 48 a5 c5 bc 44 f9 56 bd bb 50 1c 3d 27 d1 3d 3d
       -0.024126664 -0.052483812 0.038162928 0.04634204

spike_rnn.fc2.weight f4 [64, 128]
000000 05 aa 4f 3d 92 e7 88 3d fb 34 8b 3d a3 b3 a7 bd
       0.050699253 0.066847935 0.067972146 -0.0818856
000010 78 ad 26 3d ae ce bf bc 29 3b 38 3d 03 b4 78 3d
       0.040692776 -0.023413982 0.044978295 0.060718548
000020 72 fe b0 bd a3 c5 88 38 e4 a3 03 3d 5d a6 2e bc
       -0.086422816 6.521798e-05 0.03213872 -0.010659781
000030 55 13 81 bd 70 eb 91 bd d4 ba a0 bc 9e da 5b bc
       -0.063025154 -0.07124984 -0.019620337 -0.013418822
000040 71 cd 97 3d 05 21 84 bd 4a 11 92 3d f4 2e 3d bc
       0.07412232 -0.064516105 0.07132204 -0.011546839
000050 45 d1 8f 3c cd bf 43 bd 19 46 f3 bc 21 c4 f1 ba
       0.017555842 -0.047790337 -0.029696511 -0.0018445292
000060 a7 f0 67 bd 10 a8 16 3d ac 0d 65 bd b4 03 9d bd
       -0.05662599 0.03678137 -0.05592124 -0.07666722
000070 4c b2 a4 bc 81 20 4c 3d 8d de a2 bb d2 94 8d bd
       -0.02010455 0.049835686 -0.004970378 -0.06913151
000080 31 3b 0e bd ca b4 9d 3c 23 88 0b bd bd 3c b2 bd
       -0.034724418 0.019251246 -0.034065377 -0.08702991
000090 23 06 a8 bd 5d 55 eb bc 3a 96 9b 3c f5 be 8c 3d
       -0.082042955 -0.028727228 0.018992532 0.0687236
0000a0 38 72 e6 3c 66 04 a6 bd 50 bd 55 bd 85 6d 1a bd
       0.028130636 -0.08106308 -0.052182496 -0.037702102
0000b0 d2 e5 1f 3d 6c bf 48 3d b9 1f 43 3b 9f 4d 51 3c
       0.039037533 0.04901068 0.0029773547 0.012774854
0000c0 fd 88 85 bd 6a 23 65 bd bf fe b4 bd e8 cb 2d bd
       -0.06520269 -0.055941977 -0.088376515 -0.04243079
0000d0 11 62 45 3d b8 91 de bc 21 f6 95 3d d2 7f 36 3d
       0.048189227 -0.027169093 0.07322336 0.044555493
0000e0 de 81 3e bc 69 ac 98 3c 4b c9 99 bc 65 87 5c 3d
       -0.011627642 0.0186369 -0.018772742 0.05384006
0000f0 14 42 28 bc b0 0f a3 3c 10 ad ae bd f2 d3 a4 3d
       -0.0102696605 0.019904941 -0.08529103 0.08048238
000100 ca 00 15 bd d2 c9 90 3d f4 d6 75 bd 05 36 29 3d
       -0.036377706 0.07069744 -0.06001945 0.041311283
000110 35 ed 8f 3d c8 d6 fe bc 32 ef 6c bc 99 a1 79 3d
       0.070276655 -0.031108275 -0.0144613255 0.060945127
000120 31 23 85 bb 8a 21 2c bd 64 04 4b 3d da 47 97 3d
       -0.004063033 -0.042024173 0.049564734 0.073867515
000130 ed a7 2d bc 14 75 90 bd 37 ec 91 3d a1 95 9b 3d
       -0.010599119 -0.07053581 0.071251325 0.07596899
000140 ba b1 00 bd de 07 20 bd ad bf 96 bd 93 12 bb 3c
       -0.031419493 -0.039070003 -0.07360778 0.022836005
000150 6b ff 1d bd 2c 58 cb 3c a9 47 a4 bd fa f8 56 3d
       -0.038573664 0.024822317 -0.080214806 0.052483536
000160 77 49 9b 3d 23 a7 2a bc cb 7c 1d bd 91 b8 68 bb
       0.07582372 -0.010415825 -0.03844909 -0.00355104
000170 25 4e 95 bc b9 04 b7 bd 74 b7 58 3d 11 79 a8 3b
       -0.018225739 -0.08936448 0.05290933 0.0051413854
000180 ed 62 d3 bc 7a f3 ab 3d 8c 38 5d 3d 24 9e 53 3c
       -0.025804007 0.08396049 0.054009005 0.012916122
000190 e7 dc 5b bc 76 ac e4 bc 16 da b9 bd 5b 92 34 3a
       -0.013419366 -0.027914267 -0.090748 0.0006888264
0001a0 99 0e 67 3d 1a 9f 88 3c fc 63 8c 3d c2 e4 02 3d
       0.056410406 0.016677428 0.06855008 0.03195644
0001b0 fb 57 d8 3b 4d 6f 8b bd 01 a4 3f 3d f9 a0 13 bd
       0.006602285 -0.06808338 0.046787266 -0.036042187
0001c0 56 68 2e 3d 19 1f 9a 3d 08 71 8a 3d f6 44 8f 3d
       0.04257997 0.07525463 0.0675984 0.06995575
0001d0 1e 73 5d bd f8 91 84 3c 96 52 d7 3c 92 5f 79 3d
       -0.054064862 0.016182885 0.026284497 0.06088216
0001e0 b0 fb 62 bd a0 67 aa 3d 67 a9 7a 3d ff 13 5a 3d
       -0.05541581 0.08320546 0.06119671 0.053241726
0001f0 12 51 7e bc 63 28 34 bd ea 05 89 bd e0 0d 81 bd
       -0.015522258 -0.04398383 -0.06690581 -0.063014746
000200 fe 83 2b 3c 20 57 1c bd 6f 7a 95 3d 5a 19 25 3c
       0.010468481 -0.038169026 0.07298743 0.010076845
000210 8e eb 32 3b 24 73 7c 3d 8b e0 a7 3d 53 37 8e bd
       0.0027301046 0.061633244 0.08197125 -0.06944146
000220 4f c4 a0 3d 8d 0f 69 3d 1f 60 9a bd 85 a7 2a 3d
       0.07849943 0.056899596 -0.07537865 0.041663665
000230 1a 54 92 3d a7 5f b0 b9 78 a0 a1 3d 5b 30 55 3d
       0.07144947 -0.00033640602 0.07891935 0.05204807
000240 11 cb a4 bd 98 0b a5 bd 50 60 a4 3d 6f db 33 3c
       -0.08046544 -0.08058852 0.08026183 0.01097761
000250 90 de bd 3c 85 cb ac 3d 69 53 02 bc 6f ed c0 bc
       0.023177415 0.08437256 -0.007954457 -0.023550717
000260 7d 9a b0 bd fa ae 86 3d 7b 9f 9a 3b ec 10 4c 3d
       -0.08623216 0.06576343 0.0047187186 0.049820825
000270 03 c5 2f 3d e6 33 aa 3d de 6f a7 3d 96 3b 34 bd
       0.042912494 0.0831068 0.08175634 -0.044002138
000280 78 96 42 3d 95 31 6b 3d f3 1e a6 bc 30 9d 68 bd
       0.04750678 0.057420332 -0.02027843 -0.05679053
000290 ac 38 3d 3d f9 23 ac 3d 1c 8b 3f 3d d0 1e 92 bc
       0.046196625 0.08405299 0.046763524 -0.017836958
0002a0 6b 51 36 bd 79 8e 9c 3d 4f b1 ef 3a 4f 0b 1b 3d
       -0.04451124 0.07644362 0.0018287095 0.03785258
0002b0 f3 01 09 bd 0f 19 47 3c b0 2d 0e bd 5e 9a 2f 3d
       -0.033449125 0.0121519705 -0.03471154 0.042871825
0002c0 d1 5c 77 bd 05 51 81 bb 6c d0 51 3d 23 bc ad bd
       -0.06039125 -0.003946426 0.051224157 -0.0848315
0002d0 ed 3c 3e 3d c6 bd 01 3d 6a a9 97 3d 0d 19 12 3b
       0.046444822 0.031675123 0.0740536 0.0022292763
0002e0 ca 0a a0 3d 16 47 6f 3d 7a ff e8 bb b5 86 64 3d
       0.07814558 0.058417402 -0.0071105333 0.05579253
0002f0 6a 5c 05 3d 54 42 af 3b e5 38 be 3c 98 40 f4 3c
       0.032558836 0.005348483 0.023220489 0.029815957
000300 79 9e ee bc e9 cb 4f 3d c3 b0 4d bd 61 3e 16 3d
       -0.0291283 0.050731573 -0.0502174 0.036680583
000310 a8 39 21 bd 13 c6 40 bd 50 75 a0 3c b9 a8 5a bd
       -0.039361626 -0.0470639 0.019587189 -0.053383563
000320 f9 cf 4b 3d 13 b0 d6 ba d9 a0 be bc e7 af 35 bd
       0.049758885 -0.0016379379 -0.023270058 -0.044357207
000330 40 9e 2f bd e7 13 94 3d a5 1d aa bd ae e4 88 bd
       -0.04287553 0.072303586 -0.083064355 -0.06684242
000340 23 5d a5 3d 8d ca 82 3d 3d c8 81 3d f7 3f a1 3d
       0.08074405 0.0638629 0.063370205 0.078735285
000350 22 bf 98 3d 51 f7 14 3d 7d ab 0b 3c 73 8f 83 3d
       0.07458331 0.03636867 0.008524773 0.06423845
000360 34 fa 60 bd 2a 44 82 3d 09 8f 15 3d c2 7a 99 3b
       -0.054926112 0.063606575 0.036513362 0.0046838233
000370 f4 14 20 3d c3 92 77 bd 88 f1 89 3d 3d 3c 9c 3d
       0.039082482 -0.060442697 0.067355216 0.07628677
000380 41 bb c8 3c d4 4a d8 3c 0d ec 0a 3c 8c ca 29 bd
       0.024503352 0.026402868 0.00847913 -0.04145293
000390 36 8c 4b bd ff b1 a3 3d 7f da 0d 3d 5f 59 81 bd
       -0.049694262 0.079929344 0.034632202 -0.06315874
0003a0 ab db 85 39 5d e9 f3 3c 45 f9 0a bd 62 81 05 bd
       0.00025531402 0.029774362 -0.03392913 -0.032594092
0003b0 59 45 a7 3d ee c2 a1 bd 7e 1b 73 bd c5 2e 6c bd
       0.08167524 -0.07898508 -0.05935239 -0.05766179
0003c0 2a c2 fc bc 59 db 71 3d b2 d8 af 3d 97 2a 48 3c
       -0.030854303 0.059047077 0.08586253 0.012217185
0003d0 66 11 66 3d d9 71 4c bc 17 44 79 3d 6f ed 51 3c
       0.056168936 -0.012478315 0.06085595 0.012812956
0003e0 c6 00 89 3d 92 f1 5b 3c 3c 6b fd bb b5 44 e0 bc
       0.06689601 0.013424294 -0.0077337306 -0.027376512
0003f0 2d 93 1c 3b f9 cc 80 bd db 55 b5 3c 3e c6 a6 bd
       0.0023891435 -0.062890954 0.022135666 -0.081432804

spike_rnn.fc2.bias f4 [64]
000000 81 80 9c bd ae 8f 95 bd 29 0e 2e 3c d9 b4 a3 bd
       -0.07641698 -0.07302795 0.010623493 -0.07993478
000010 ea 6f 36 bd c3 e6 06 3d 0e d6 ab 3c 17 0b 0c 3c
       -0.044540323 0.032934915 0.020976093 0.008547566
000020 2f f8 af bc 0d bb 34 3d 0a a5 c1 bc bd 37 8a 3d
       -0.021480648 0.044123698 -0.023638267 0.067489125
000030 62 fd 9a 3b c9 d4 c2 3c 73 d9 1e 3d 23 32 7c bd
       0.0047299126 0.023783104 0.038781594 -0.06157125
000040 07 77 90 3d bc 60 e5 bc 23 c7 a7 3d 0b 50 24 3c
       0.07053953 -0.028000228 0.08192279 0.010028849
000050 12 45 2d 3d 48 62 d9 3c 66 99 bd bc e0 ec 46 bd
       0.0423022 0.026536122 -0.023144435 -0.048565745
000060 6a 15 51 bd c9 05 9d bd 8a c6 07 3d 44 e0 7d 3d
       -0.051045813 -0.07667119 0.033148326 0.061981454
000070 3c f0 1d 3d d2 46 1d bd 38 7c a6 3d 5b 87 a7 bd
       0.038559183 -0.038397618 0.081291616 -0.08180114
000080 74 59 fe 3c 0e bb 2f 3d 0b 3e 16 3d 7c 5f 66 bd
       0.031048514 0.042903 0.036680263 -0.056243405
000090 bb 02 a9 bd 17 8b 79 3d a0 75 48 bd 44 bc 10 bd
       -0.08252474 0.060923662 -0.0489403 -0.035335794
0000a0 d9 28 a4 bd 56 68 99 3d 8f bf 27 3d 75 b8 31 3c
       -0.080156036 0.074906036 0.04095417 0.010847201
0000b0 17 73 28 3d 73 24 9a bd 74 42 9c 3d 91 b6 38 3d
       0.041125383 -0.075264834 0.076298624 0.045095984
0000c0 fc 5a 5e 3d 2e 58 0b 3d cd c1 8a bd dc 47 c5 3c
       0.05428599 0.03401964 -0.06775246 0.024082117
0000d0 37 bb 8b 3d 5b 0d 05 3d 5b a7 04 3d 1c fb 85 bd
       0.06822818 0.03248344 0.032386165 -0.06542036
0000e0 90 c5 1b bd 09 ad 50 bd 9e 5d 9d 3c 54 ac 40 bd
       -0.038030207 -0.05094627 0.01920968 -0.047039345
0000f0 90 a0 85 bd 1f a7 5d bd eb fa c5 bc 88 32 94 bd
       -0.065247655 -0.054114457 -0.024167499 -0.072362006

spike_rnn.lif2.threshold f4 [64]
000000 ee b2 38 3f 92 74 1e 3f 25 2d 06 3f 6d ba 24 3f
       0.72148025 0.6189662 0.52412635 0.64346963
000010 56 7b 12 3f 5d 45 a9 3e 1c c7 42 3f e7 8b e8 3e
       0.57219446 0.33060732 0.76085067 0.45419237
000020 00 2b c6 3e de a6 bc 3e 15 03 34 3f 95 ee 30 3f
       0.3870468 0.3684606 0.703172 0.6911405
000030 e7 2b 11 3e 4a 59 af 3e 7b 0d 4b 3f 9d ff e5 3e
       0.14176904 0.3424781 0.79317445 0.4492158
000040 05 37 d1 3e 01 c5 40 3e d8 f1 83 3e aa 1e 57 3f
       0.4086229 0.18825151 0.2577045 0.84031165
000050 f8 d6 83 3e 86 5a d4 3e 2b 04 5b 3f ed ed 25 3f
       0.25749946 0.41475314 0.85553235 0.6481617
000060 a8 b7 5e 3f 59 41 59 3f 9f 03 5f 3f ad 0e 28 3e
       0.8699899 0.8486534 0.871149 0.16411848
000070 6c d9 c0 3e c6 7c 65 3f 19 b4 76 3f 5e 3a 48 3f
       0.3766588 0.89643514 0.9636856 0.7821406
000080 56 cc d5 3d 85 6b af 3e 9f c4 90 3e 49 a8 dc 3d
       0.104393646 0.34261718 0.2827501 0.10774285
000090 61 0b 67 3f 67 31 5b 3f a9 29 16 3f 4b ef fd 3d
       0.9025174 0.85622257 0.5865732 0.12399157
0000a0 ac 54 12 3c 2c 88 d5 3e fc 9b 2e 3d de 5e e8 3e
       0.00893132 0.41705453 0.042629227 0.45384878
0000b0 83 8e 53 3e 6c 35 57 3f 66 9b b7 3e 7b 58 ec 3e
       0.20659833 0.8406589 0.35860747 0.46161255
0000c0 e5 66 bd 3d af e6 e8 3e b2 31 83 3e 4e da 26 3f
       0.09248141 0.45488498 0.25623852 0.65176857
0000d0 e7 f0 2e 3f 3f 5b 3d 3f 09 77 bb 3e 6c f3 78 3f
       0.6833634 0.73967355 0.36614254 0.9724643
0000e0 25 6f 69 3f 83 d6 11 3f b1 30 8a 3e 43 67 44 3f
       0.9118522 0.56967944 0.26990274 0.76720065
0000f0 67 17 14 3f a2 f8 42 3f e0 56 29 3e b2 61 05 3f
       0.5784821 0.76160634 0.16537046 0.52102196

spike_rnn.lif2.beta f4 [64]
000000 0a 3b 6e 3f 4e e9 4a 3e 5c 3a a3 3e 6e 17 1a 3e
       0.93058836 0.19815561 0.31880462 0.15048
000010 56 f4 bb 3e 4f 5a 6a 3f 1c fd 7f 3e d5 e5 de 3e
       0.3670985 0.9154405 0.24998897 0.43534723
000020 87 6e 9f 3d 54 39 8f 3d 59 fa 06 3f 1d 7f 86 3e
       0.07784753 0.06993356 0.5272575 0.26268855
000030 fe 30 84 3e a0 46 ee 3e 4f 8b 57 3f d1 bc 26 3f
       0.25818628 0.46538258 0.84196943 0.6513186
000040 31 af 6e 3e e3 62 4e 3f 0f 38 6b 3f d6 e0 59 3f
       0.23309018 0.8061964 0.91882414 0.851087
000050 b9 80 2e 3f 7a b0 45 3f e1 19 10 3f ec a3 7e 3e
       0.68165165 0.77222407 0.5628949 0.24867219
000060 b7 2a a5 3e 1d 22 27 3c 4d b3 17 3f f5 c4 57 3f
       0.3225915 0.010201004 0.59257966 0.8428491
000070 05 72 23 3e db d7 0e 3f e4 bc 97 3d 55 79 09 3f
       0.15961464 0.5579812 0.07409075 0.53700763
000080 8e 37 59 3f a3 4c bf 3d b4 cf d0 3d 96 2a 15 3f
       0.84850395 0.09340789 0.10195866 0.58268106
000090 52 d2 7d 3b 9c 62 e4 3e 32 01 ed 3e 63 9f ca 3e
       0.0038730097 0.44606483 0.46289974 0.39574727
0000a0 e5 21 f3 3d 38 95 c1 3e bd 5c 9e 3e f5 09 0a 3f
       0.11871699 0.37809157 0.3093013 0.53921443
0000b0 08 ed 4b 3f 84 ee b7 3e 7f ef 94 3e 07 4f 6e 3f
       0.79658556 0.3592416 0.2908897 0.93089336
0000c0 00 74 97 3e b1 1f 57 3f 5c 7d e1 3e 0e f2 1b 3f
       0.29580688 0.8403273 0.44040954 0.6091622
0000d0 73 33 7c 3f 1b 3e f2 3e 4c a4 fb 3e b1 73 56 3f
       0.98516005 0.47313008 0.49148786 0.8377028
0000e0 22 ab 16 3f 18 8c 6d 3f 3d 1a e1 3e f5 93 ea 3c
       0.5885488 0.9279189 0.4396533 0.028635005
0000f0 d9 a9 6b 3f 6f 07 4a 3f 5b 9c fc 39 d4 a3 17 3f
       0.9205604 0.7891759 0.0004818168 0.59234357

spike_rnn.lif2.recurrent.weight f4 [64, 64]
000000 a7 41 83 bd da cc 30 bd 9f 82 90 3d 20 fa a8 3d
       -0.064090066 -0.04316411 0.07056164 0.082508326
000010 7a 89 8f b9 5c 55 b9 bd 2b 87 0b 3d 24 a7 b4 3c
       -0.00027377513 -0.09049484 0.034064453 0.022052355
000020 96 4f e5 3c 4b e3 6d bc 0c 12 f9 bd 12 10 ac bd
       0.027992051 -0.014519523 -0.12161645 -0.08401503
000030 bd c8 67 3c cf b9 a1 bd 4d a4 8b 3c c9 55 fc bd
       0.014146981 -0.07896768 0.017046118 -0.1232105
000040 ad 22 c5 3d 95 96 ac bd dc 36 bc bd 87 86 ba 3d
       0.096257545 -0.08427159 -0.09190151 0.0910769
000050 63 19 1c 3d df 7a bb 3c ed d5 2f bd 59 f5 64 38
       0.03811015 0.022885738 -0.042928625 5.4587934e-05
000060 7b 0d 7f 3d cf ac 4c bd 94 05 dd bd 1b bf 42 3c
       0.062268715 -0.04996949 -0.107920796 0.011886383
000070 58 10 f7 bd 63 75 21 3c dd c4 b3 3d f0 82 c4 bd
       -0.12063664 0.009854647 0.08777783 -0.09595287
000080 59 60 b3 3b 9a 86 f4 bc ca 47 52 3d 7c e7 54 bd
       0.005474132 -0.02984934 0.051337995 -0.051978573
000090 e7 c9 14 bd 1a 90 ff bc 44 80 7e 3b 95 51 27 3d
       -0.03632536 -0.031196643 0.0038833776 0.040849287
0000a0 3e e0 a7 3d 4c d1 54 bc b0 56 82 3d ca 0c d8 3d
       0.08197068 -0.012989353 0.063641906 0.10549314
0000b0 bc 83 17 bd f5 78 11 bd 01 c0 3c 3d 51 b2 f5 3d
       -0.036990866 -0.035515744 0.046081547 0.11996902
0000c0 01 64 55 3d 10 1a d0 3c 6e f2 9f 3d 22 25 60 3d
       0.052097324 0.025403053 0.07809912 0.054722913
0000d0 87 82 45 bd da 4f 6e 3d fd 72 a4 3d 35 01 86 bd
       -0.048220184 0.05818162 0.08029745 -0.06543199
0000e0 9c 9d 32 bd d8 e6 b3 3d b4 95 d0 3d a1 53 a5 3d
       -0.04360734 0.08784264 0.101848036 0.080725916
0000f0 40 45 24 39 96 15 bc bd 43 07 a7 bc 56 e5 f4 bd
       0.00015666056 -0.09183805 -0.020389205 -0.11957805
000100 2d 40 00 3d bd 91 41 3d 35 c5 f8 3d 4a 76 c1 3c
       0.031311203 0.047258127 0.12146989 0.023615975
000110 91 0f 0d bd bb 65 2f 3d 60 cb 53 bd c3 82 0c bd
       -0.034438673 0.042821627 -0.051707625 -0.03430439
000120 e0 a5 83 3d 8e 41 48 bc 45 81 43 3c da 7b e9 bd
       0.064281225 -0.012222661 0.011932676 -0.11400576
000130 b1 b6 96 3d 9f f9 dc bd a3 37 4a 3d 98 ef b0 bd
       0.07359064 -0.10789799 0.049369466 -0.08639449
000140 62 cf e8 bd 8e 28 5b 3d 4a 35 12 3d 87 04 a9 3b
       -0.1136768 0.053505473 0.03569535 0.0051580104
000150 a4 6a a6 bc 4b c4 e3 3c c5 47 b7 bd 73 96 e8 bc
       -0.020314522 0.02780356 -0.08949236 -0.028392052
000160 38 e2 2c bd 65 2c b6 3d 0e 0f c4 3d df 3f f1 bd
       -0.042207927 0.08895186 0.09573184 -0.117797606
000170 ed 4a f8 3c ff 59 09 bc 0c 27 bf 3d 46 32 f8 bd
       0.030309165 -0.008383273 0.093336195 -0.12118964
000180 b7 e8 8c bc 0b 39 98 3c 35 2e a9 bd a0 64 6c 3d
       -0.01720081 0.018581888 -0.082607664 0.05771315
000190 dc a8 07 3c cd a9 8f bd 99 d9 e2 bd 52 2a d6 3d
       0.008280005 -0.07014809 -0.1107666 0.10457291
0001a0 8b 28 b2 3d 82 d1 7f 3d 57 83 68 3d f6 46 9d 3d
       0.08699139 0.06245566 0.05676588 0.0767955
0001b0 2b 65 6b 3c 96 3b 04 ba af b5 b0 bd d0 42 11 bd
       0.014367382 -0.00050442794 -0.086284034 -0.035464108
0001c0 5c dd c8 3d 0f f0 8e 3d 4a 3d 89 3d 03 2a 36 3c
       0.09807846 0.06979381 0.06701143 0.011118415
0001d0 33 11 e9 bd 3b 6f 8d 3c 94 12 bb bd 06 ca d0 bd
       -0.113802336 0.017264953 -0.09134403 -0.10194783
0001e0 2f 5f ef bc 18 75 4a 3d 81 2c 62 3d 14 08 e4 bd
       -0.029220192 0.049428076 0.055218223 -0.11134353
0001f0 72 5d 43 bd 26 6b 11 37 65 06 a3 bc ae 7c ce 3d
       -0.04769654 8.667621e-06 -0.01990051 0.100823745
000200 2c d5 0d bd a1 a0 96 3d cc 33 06 3d 53 2c 18 bd
       -0.034627125 0.07354856 0.03276424 -0.037151646
000210 15 ad 32 bd 71 05 ce 3d ca a5 7e 3d ae b4 78 3c
       -0.043622095 0.100596316 0.062169828 0.015179796
000220 b6 c5 52 3b fd cf d2 3d c2 a5 77 3d fc 6b 74 3d
       0.0032161302 0.10293577 0.060460813 0.059673294
000230 99 69 54 3d d4 ce d8 3c cd de 59 3d ae 7d 80 3d
       0.05185852 0.02646581 0.053190995 0.062739715
000240 0d a1 9e 3d 4e 57 38 3d 71 43 cc bc 11 79 55 3d
       0.07745562 0.045005135 -0.024934502 0.05211741
000250 43 9e 3a bd ff 6e 3b bb 2a 84 27 3d a2 fa 83 3d
       -0.045561086 -0.0028600094 0.040897526 0.06444289
000260 56 5e 80 bd 85 8b ec bd 81 b4 f2 bd 7e dd ee bd
       -0.06267993 -0.11550049 -0.11850835 -0.1166334
000270 d5 4a d4 bd 95 02 5b bd 44 71 ae 3c fa 6d dd bd
       -0.103658356 -0.05346926 0.021294244 -0.10811992
000280 66 87 95 3d 8e 7d ae 3d 09 a1 6b bd 61 48 c4 bd
       0.07301216 0.085200414 -0.057526622 -0.09584118
000290 0f c2 87 3d 15 5b f6 3a 03 43 f7 bd 2c 7a 58 3c
       0.066288106 0.0018795455 -0.12073328 0.013212722
0002a0 6e ec db bc 1f 3c aa bd 3a 0a 7f bd b7 f0 27 bb
       -0.026846137 -0.083122484 -0.062265612 -0.0025625655
0002b0 d0 2c a1 bd fe df 61 bc 89 9c 82 3c e4 99 3f bd
       -0.078698754 -0.013786314 0.015943782 -0.04677762
0002c0 52 e9 7c bd 74 7b eb bd 97 65 e2 bd df 3b c9 3d
       -0.06174595 -0.11498156 -0.11054533 0.09825873
0002d0 97 e1 f9 3d 66 44 4f bd ed 3f 6b 3d a4 0c 09 bd
       0.12201231 -0.05060234 0.05743401 -0.03345932
0002e0 cd 41 e9 bd ed 15 c3 bd cd d6 04 3d cf 19 d3 3d
       -0.11389504 -0.095256664 0.032431412 0.10307657
0002f0 d9 e8 1f 3d df 69 0d 3b 14 e4 d8 b9 e1 d8 46 bd
       0.03904042 0.0021577997 -0.00041368662 -0.048546676
000300 27 a1 3c 3d c8 e1 9d bd 41 b4 3a bd 57 26 f2 3c
       0.046052124 -0.0770908 -0.04558206 0.029559297
000310 b7 66 e3 3d 2f 55 a9 bd a7 48 9c 3d 43 34 b5 3d
       0.11103576 -0.082682006 0.07631045 0.08847859
000320 6a f5 ba bd 9d 19 9d bc 90 86 04 3d d1 6b d4 3a
       -0.0912884 -0.019177252 0.03235489 0.0016206448
000330 cc 1c e5 bc d6 29 c1 3b af 66 85 bd 9f c1 22 bd
       -0.027967833 0.00589488 -0.06513726 -0.039735433
000340 44 ee bd 3d 36 06 4a bd 4f 42 d9 bc 9c ef b9 3c
       0.09273961 -0.04932233 -0.026520876 0.022697262
000350 13 9b 38 3d 5f 11 f8 3d 54 24 ed 3c 40 30 93 bc
       0.045069765 0.12112688 0.028947987 -0.017967343
000360 b2 44 8c 3c a0 46 47 3d 5e 21 ea 3d fd 82 e9 bc
       0.0171226 0.048651338 0.114321455 -0.028504843
000370 56 86 ef bd 36 d3 86 bd 4d 52 89 3d e7 7c 23 3d
       -0.116955444 -0.06583254 0.06705151 0.039914038
000380 60 f1 6d 3d f7 23 7a bc 4c c4 c5 bd 33 ce 8e bd
       0.05809152 -0.015267364 -0.09656581 -0.06972923
000390 25 f1 b6 3d 62 54 e0 3d cb 83 51 3d a7 31 fe bc
       0.089327134 0.10953595 0.05115108 -0.031029535
0003a0 7c 8f b1 bb 4b 7e 42 bd fd b7 00 3e 51 41 63 bd
       -0.005418716 -0.047483724 0.12570186 -0.055482212
0003b0 ae 86 b9 3d d8 95 9c 3d 64 80 e6 bd 16 c2 18 bc
       0.09058891 0.07645768 -0.11254957 -0.009323617
0003c0 20 bd 38 3d 30 87 39 bd b1 f5 f8 bc bf 81 89 bc
       0.04510224 -0.04529494 -0.030390592 -0.0167855
0003d0 3f f7 d7 bc 39 5d 90 3d e5 91 24 3d 25 59 14 3a
       -0.026363013 0.07049031 0.0401782 0.00056590355
0003e0 f0 e1 95 bb 25 47 7c bb ce ad b3 3b 33 74 31 ba
       -0.004574053 -0.0038494554 0.0054833656 -0.0006769329
0003f0 ca 27 98 3c d4 52 3b 3b 53 7a 75 bc 8a 88 47 3c
       0.01857366 0.0028583305 -0.014982778 0.01217855

spike_rnn.lif2.recurrent.bias f4 [64]
000000 4c 15 b2 bd f1 44 a3 bc 48 1c 19 3d 07 d7 55 bc
       -0.08695468 -0.019930335 0.037380487 -0.013051755
000010 d5 f5 c9 bd 71 d0 1f 3b 2c fe 3f bd 3e 05 64 bb
       -0.09861342 0.0024385715 -0.046873257 -0.0034793164
000020 36 d1 49 3d 59 73 8d 3d 01 64 cc bd 97 c1 0d 3d
       0.049271785 0.069067664 -0.09980012 0.03460845
000030 f4 11 57 bc c5 f4 83 bd 1d f8 2c bb 03 25 fe 3c
       -0.013126839 -0.064431705 -0.0026393004 0.031023508
000040 ee 1f f3 bd db 9f 69 3b b9 c3 95 bd 63 7f 4f bd
       -0.118713245 0.003564826 -0.07312722 -0.050658595
000050 63 78 d4 3d 07 cd f7 3c 78 1f 08 bd 82 a5 84 3d
       0.103745244 0.030249132 -0.033233136 0.064768806
000060 f6 d4 58 3b c8 b1 b6 bd 8e b8 cc bc 26 61 71 3d
       0.003308592 -0.08920628 -0.024990346 0.05893054
000070 c8 23 bb bc 07 4a 28 bd e1 55 db 3d e8 6d 31 bd
       -0.02284421 -0.041086223 0.107097395 -0.043317705
000080 7f 3c 5d 3d 00 0a 27 3c 9d 12 ec bd e6 6b 9b 3d
       0.05401277 0.010195255 -0.11526988 0.07588939
000090 fd 03 dd 3d 4c f5 f0 bc 9f bc ef bd e1 87 66 3d
       0.10791776 -0.029413842 -0.117058985 0.056281928
0000a0 27 27 4e 3c e0 df 36 bb df 91 43 bb e7 b2 88 bd
       0.012582577 -0.0027904436 -0.0029841585 -0.06674748
0000b0 37 19 c1 3b 73 8d 9c bd fc bc ce 3c d0 17 db 3d
       0.0058928984 -0.07644167 0.0252366 0.10697901
0000c0 01 9a bd 3d 09 b7 61 bd 19 9e a4 3d 57 aa b7 bd
       0.092578895 -0.055106197 0.08037967 -0.089680366
0000d0 1c 35 fa bd f4 1c 2b bd 99 9d d4 3c 74 12 ce bd
       -0.12217161 -0.04177566 0.025954055 -0.100621134
0000e0 6a 05 bd 3d f1 07 ed 3d 46 d3 7a 3b 77 17 d8 bd
       0.09229548 0.1157378 0.0038272901 -0.105513506
0000f0 e9 2f 89 3d b8 d5 8a bd 86 bd 88 bb 5d 85 f1 bb
       0.06698591 -0.06779045 -0.0041729836 -0.0073706345
