model/log-anomaly/model/best_model.pth (torch, 560939 bytes, 10 tensors)

features.0.weight f4 [16, 1, 2, 2]
0	0x3e9a1962	0.3009749
1	0xbe8c8610	-0.27446032
2	0xbe930cbb	-0.2872065
3	0x3ec83a10	0.39106798
4	0xbe86d00e	-0.26330608
5	0x3eb37bbe	0.35055345
6	0x3d9d1fa7	0.07672053
7	0x3e9b84ea	0.30374843
8	0xbe01ec02	-0.12687686
9	0xbc2267f4	-0.00991248
10	0x3e52f662	0.206018
11	0x3d8e346d	0.06943593
12	0x3cb48dd6	0.022040289
13	0xbe35f1f2	-0.17768076
14	0xbd3fe630	-0.046850383
15	0xbe67fa22	-0.22654012
16	0xbd474755	-0.048652012
17	0xbc33c3d8	-0.010971986
18	0x3f038166	0.5136932
19	0x3e0c8f65	0.13726576
20	0xbe2f6064	-0.17126614
21	0xbe9c260e	-0.30497783
22	0x3c318256	0.010834297
23	0xbe6f2326	-0.23353252
24	0xbe597bee	-0.21238682
25	0xbbe637ff	-0.007025718
26	0x3efbaa43	0.49153337
27	0x3eada564	0.33915246
28	0xbee213d7	-0.44155762
29	0x3ea2ec6d	0.31821004
30	0x3e65b1db	0.22431128
31	0x3f04d921	0.5189381
32	0x3e487b97	0.19578396
33	0xbea63474	-0.32461894
34	0xbee440d4	-0.4458071
35	0xbe8d3203	-0.27577218
36	0x3ed3a19b	0.41334233
37	0x3d5d8e6f	0.054090913
38	0x3e30c20f	0.17261527
39	0xbe9cc46d	-0.3061861
40	0x3ed2c751	0.4116769
41	0xbdba0d91	-0.09084619
42	0x3ecbcbfc	0.39804065
43	0x3e49b3d3	0.19697504
44	0xbe613ae5	-0.21995123
45	0x3e6b1ce4	0.2296024
46	0xbe787b2a	-0.24265733
47	0xbd5ab0b5	-0.053391177
48	0x3e78210d	0.24231358
49	0x3dabd1f6	0.08389656
50	0xbea8672d	-0.32891217
51	0xbe80458e	-0.25053066
52	0x3df508fa	0.11964603
53	0xbc73d085	-0.014881258
54	0x3f20d1a0	0.6281986
55	0x3f1fddd6	0.6244787
56	0xbe1ffe1a	-0.15624276
57	0xbeb55227	-0.3541424
58	0x3f08e995	0.5348142
59	0x3e34ab43	0.17643456
60	0xbec17b05	-0.3778917
61	0x3e7c9484	0.24666029
62	0x3eadf861	0.3397856
63	0x3ecc0708	0.39849114

features.0.bias f4 [16]
0	0xbe03437f	-0.12818716
1	0xbec8500b	-0.39123568
2	0xbd909cfd	-0.07061193
3	0x3de1c459	0.110237785
4	0xbebf5817	-0.37371895
5	0xbef29232	-0.47377163
6	0x3ddfdbbe	0.10930584
7	0xbe62c1c7	-0.22144233
8	0x3e0a0603	0.13478856
9	0xbe3aac6b	-0.18229835
10	0x3d3cb987	0.04607537
11	0x3dbb76e5	0.09153537
12	0x3d237d93	0.03991468
13	0x3e5eba0e	0.21750662
14	0xbedbc560	-0.42924023
15	0x3c81448d	0.015779758

features.3.weight f4 [32, 16, 2, 2]
0	0xbe7cddb0	-0.24693942
1	0xbeede39e	-0.4646272
2	0xbc8c1b1c	-0.01710277
3	0xbead61f1	-0.33863786
4	0x3d972e27	0.0738185
5	0xbe0dd2b3	-0.13849907
6	0xbde46178	-0.11151403
7	0x3d20ee51	0.039289776
8	0xbe297514	-0.16548568
9	0xbddeab3a	-0.108725026
10	0x3de620b2	0.11236705
11	0xbe900b34	-0.28133547
12	0x3d6e1576	0.058125935
13	0x3c996712	0.018725906
14	0xbda2a7d7	-0.07942169
15	0xbc207e1e	-0.009795694
16	0xbcfd4cab	-0.030920347
17	0xbddc98eb	-0.10771354
18	0x3d48bd6a	0.049008764
19	0xbe8e64ea	-0.27811366
20	0x3df20e64	0.11819151
21	0xbdbb4ce8	-0.09145528
22	0x3d4efe62	0.050535567
23	0x3d4234a9	0.047413502
24	0xbe461d8a	-0.19347206
25	0xbeb010b1	-0.34387735
26	0x3e942f37	0.28942272
27	0xbe869976	-0.26288956
28	0x3e0871ff	0.13324736
29	0xbd2d4599	-0.0423027
30	0x3e33c7c5	0.17556675
31	0x3b09c16f	0.0021019836
32	0x3deaf4d9	0.11472482
33	0xbe0071fa	-0.12543479
34	0xbc12088b	-0.00891317
35	0x3df44d6a	0.11928828
36	0x3d6aba6e	0.0573067
37	0x3cfa6f44	0.030570634
38	0xbe28f896	-0.16501078
39	0xbe496848	-0.19668686
40	0xbe0be487	-0.13661395
41	0xbdcb7baa	-0.099356964
42	0x3e0e65df	0.13906048
43	0xbe82aa77	-0.2552068
44	0x3d2dd595	0.042440016
45	0xbdc2d286	-0.095128104
46	0xbe14dcc7	-0.14537345
47	0xbc9b1c37	-0.018934352
48	0x3d18faaa	0.037348427
49	0x3d8e0683	0.06934836
50	0xbe2b1744	-0.16708094
51	0x3bc5f398	0.0060410015
52	0xbc7752c0	-0.015095413
53	0xbe4a77c4	-0.1977225
54	0x3e0b1f56	0.13586172
55	0xbe830315	-0.2558829
56	0x3cde38b2	0.027126644
57	0xbe6fe634	-0.2342766
58	0xbd83b783	-0.064314865
59	0xbe9e15c2	-0.30875975
60	0x3d1338c7	0.03594282
61	0xbe2a801a	-0.1665043
62	0x3e5a1c0f	0.21299766
63	0xbe86c67a	-0.263233
64	0x3c93d492	0.018045697
65	0x3ea27a79	0.31734064
66	0xbd95dfa1	-0.073180445
67	0x3d9d66e5	0.07685641
68	0x3dc38333	0.09546509
69	0xbcf318d5	-0.029674927
70	0xbdbbbb4f	-0.09166586
71	0x3e9259a8	0.28584027
72	0xbe12b940	-0.1432848
73	0x3a3cee35	0.00072071265
74	0xbceb65c5	-0.028735051
75	0xbdfdbfbe	-0.123900875
76	0xbe798c87	-0.24370013
77	0xbe3b7844	-0.18307596
78	0xbd6c395a	-0.057671882
79	0xbc905fca	-0.0176238
80	0xbe05887f	-0.1304035
81	0x3da3a147	0.079897456
82	0x3e358bea	0.17729154
83	0x3dcdf863	0.10057142
84	0xbd94d31f	-0.07266831
85	0xbdbed0ef	-0.09317195
86	0xbddc23e9	-0.10749037
87	0x3cfa5e69	0.030562596
88	0xbe30a823	-0.17251639
89	0xbd75ddb7	-0.060025897
90	0xbdc99b57	-0.09844082
91	0x3cedde9e	0.029036816
92	0x3d98dc6d	0.07463918
93	0xbd6f586d	-0.05843394
94	0x3ddaee35	0.10689966
95	0x3eaf226f	0.34205958
96	0xbdeaab1e	-0.11458419
97	0xbdf5deed	-0.1200541
98	0xbe8467e6	-0.25860518
99	0x3dd0f112	0.102022305
100	0xbe26da45	-0.162942
101	0xbc5d4b82	-0.013506772
102	0x3ca8b618	0.020594642
103	0xbd13f7dd	-0.036125053
104	0xbe4c4c99	-0.19951095
105	0x3d92ad56	0.071619675
106	0xbd705c34	-0.05868168
107	0xbde1566d	-0.110028125
108	0x3ca58a83	0.02020765
109	0xbe1992f4	-0.14997464
110	0x3c688eaa	0.01419417
111	0x3caae867	0.020862771
112	0xbdfec79c	-0.12440416
113	0xbd5d8b06	-0.05408766
114	0x3c57ac84	0.0131636895
115	0xbe059829	-0.13046326
116	0xbcce90d1	-0.025215538
117	0x3d8d61df	0.06903433
118	0x3d935206	0.07193379
119	0xbdabc109	-0.08386428
120	0xbdc7cc84	-0.09755805
121	0xbe5620fd	-0.20911022
122	0x3e68fb87	0.227522
123	0x3deaf039	0.114716
124	0x3dcb4d02	0.099267974
125	0x3d1431a0	0.03618014
126	0x3bf3724b	0.0074293963
127	0x3dd1e14f	0.10248052
128	0xbd414a96	-0.04719027
129	0x3e0afecf	0.13573764
130	0xbe24239b	-0.16029207
131	0x3eb9b9ef	0.3627467
132	0xbe75f0c7	-0.2401763
133	0xbdeb1937	-0.11479419
134	0x3d22a730	0.039710224
135	0xbdd6cefd	-0.10488699
136	0xbc0276c9	-0.007962891
137	0xbe54ae94	-0.20769721
138	0xbda6e2ae	-0.081487045
139	0x3c4301be	0.011902271
140	0xbdc4f4e4	-0.09617022
141	0x3e390e11	0.18071772
142	0xbc7e31e0	-0.015514821
143	0xbd8cf7ba	-0.068831876
144	0x3cf0dcca	0.029402155
145	0xbdfe4f5a	-0.12417479
146	0xbc81723e	-0.015801545
147	0x3d593028	0.05302444
148	0x3daea9a7	0.08528452
149	0x3e1f5355	0.15559132
150	0xbd498867	-0.04920235
151	0xbe2ee6d8	-0.17080247
152	0x3da0dce7	0.07854634
153	0xbdc43da2	-0.09582068
154	0xbdcf94be	-0.10135792
155	0x3bb6664f	0.0055663954
156	0xbe532760	-0.20620489
157	0xbe020e45	-0.12700756
158	0x3b282a27	0.002565989
159	0xbe8e8ae9	-0.27840355
160	0xbe2d25dc	-0.16908973
161	0x3ced5ed1	0.028975876
162	0x3d81d539	0.06339497
163	0xbcdd288e	-0.026996877
164	0xbe0e62a7	-0.1390482
165	0x3d36007d	0.04443406
166	0xbe0d3613	-0.13790159
167	0xbec5e996	-0.38654774
168	0xbdb0c1d9	-0.086307235
169	0x3d8a30bd	0.06747577
170	0x3e15e1b0	0.14636874
171	0x3c5a58b2	0.013326811
172	0xbd0d77ec	-0.034538195
173	0xbdcf88c3	-0.10133507
174	0x3ccf74e3	0.02532429
175	0xbe4d0800	-0.20022583
176	0x3cfc0d33	0.030768013
177	0x3e0f2d93	0.13982229
178	0xbd39aa16	-0.045328222
179	0xbea6fce3	-0.32614812
180	0x3d91584f	0.07096922
181	0x3d9c28d5	0.076249756
182	0xbdeb5cac	-0.11492285
183	0x3e0781c8	0.13233101
184	0xbc225560	-0.00990805
185	0xbe1d1c7c	-0.15342897
186	0x3c174047	0.0092316335
187	0x3cbd8402	0.023134235
188	0x3dbe8a58	0.09303731
189	0xbe44a5f3	-0.1920393
190	0x3c49d323	0.012318405
191	0xbd6620ce	-0.05618363
192	0x3bdb3a0f	0.0066902707
193	0x3d5b0b3a	0.053477503
194	0x3d209a90	0.039209902
195	0xbe22616d	-0.15857477
196	0x3db437c6	0.087997004
197	0xbd21f1aa	-0.03953711
198	0x3de3c8bb	0.11122271
199	0xbd2b0fc7	-0.041763093
200	0xbd7bb92e	-0.061455898
201	0x3c170572	0.009217607
202	0x3c9874f8	0.018610463
203	0xbca635a5	-0.020289252
204	0xbe115782	-0.14193538
205	0xbdd6d9fd	-0.10490797
206	0xbe528764	-0.2055946
207	0x3d37f123	0.0449077
208	0x3dddb800	0.10826111
209	0x3e643a0b	0.22287767
210	0xbcd23174	-0.025658347
211	0x3de1c120	0.11023164
212	0xbd37bd4b	-0.04485826
213	0x3cf0886d	0.029361928
214	0xbdae803d	-0.08520553
215	0xbe071021	-0.13189746
216	0xbddbd73c	-0.10734412
217	0xbd5be6ac	-0.053686783
218	0xbe04f933	-0.12985687
219	0xbe0c05d6	-0.13674101
220	0x3e2f33be	0.17109582
221	0xbdab2c66	-0.08358078
222	0x3dc84306	0.09778409
223	0xbdb111ab	-0.08645948
224	0xbe04e2df	-0.1297717
225	0xbdb9ced7	-0.09072655
226	0xbe5df8be	-0.21676919
227	0x3d49bf55	0.049254734
228	0xbdca6ca4	-0.09884003
229	0x3d819e2d	0.06328998
230	0xbdfb5c14	-0.12273422
231	0xbdb7cd88	-0.08974749
232	0xbe50e7e8	-0.20400965
233	0xbde5a02c	-0.11212191
234	0xbc2ed09a	-0.010669852
235	0xbe4140b5	-0.1887234
236	0xbdc1491d	-0.094377734
237	0x3d126d73	0.03574891
238	0x3cf75df0	0.03019616
239	0xbc167325	-0.009182726
240	0xbe05940b	-0.13044755
241	0xbd9513ff	-0.072792046
242	0xbdf06851	-0.11738647
243	0xbe032338	-0.12806404
244	0x3b8b412b	0.004249712
245	0xbd95ab10	-0.07308018
246	0xbdf8fb57	-0.12157314
247	0xbc3ce953	-0.011530238
248	0xbe32a931	-0.17447354
249	0xbd83e131	-0.06439436
250	0xbd6cea5d	-0.057840694
251	0xb8a922f7	-8.065061e-05
252	0x3d6bb798	0.057548136
253	0xbe2df8bc	-0.16989416
254	0xbd5858d5	-0.05281909
255	0xbdf944d6	-0.121713325

features.3.bias f4 [32]
0	0xbdc0607f	-0.09393405
1	0xbe78fd9c	-0.24315494
2	0xbd9179b2	-0.0710329
3	0xbe0918f4	-0.13388425
4	0x3d4d0d58	0.050061554
5	0x3bf9894a	0.007615243
6	0x3ceff22b	0.02929028
7	0x3d85d90b	0.06535538
8	0xbd8d8c77	-0.06911557
9	0xbe6aa5e7	-0.22914849
10	0x3d28285f	0.041054126
11	0xbe960b83	-0.29305658
12	0xbd6642b8	-0.05621597
13	0x3cef07cd	0.029178524
14	0xbe2654bc	-0.16243261
15	0xbe1f49cf	-0.155555
16	0xbe45a571	-0.19301392
17	0xbd12bf2b	-0.035826843
18	0xbd8eb8fc	-0.06968877
19	0x3d62e684	0.055395618
20	0xbdabc84a	-0.083878115
21	0x3d4c743f	0.04991555
22	0xbcd6646b	-0.02617093
23	0xbe29fb48	-0.16599762
24	0xbe22d2ba	-0.15900698
25	0xbdcc25b6	-0.0996813
26	0xbc65e21d	-0.01403096
27	0xbd9088ea	-0.07057364
28	0x3d535406	0.051593803
29	0xbd960756	-0.07325618
30	0xbd446488	-0.047947437
31	0xbe33e1d8	-0.17566621

classifier.0.weight f4 [120, 1056]
0	0xbd2e0005	-0.042480487
1	0xbbc9fc6a	-0.0061641233
2	0xbccaf7e0	-0.0247764
3	0xbd19d9a1	-0.037561063
4	0xbca68692	-0.02032784
5	0x3cb189f3	0.021672225
6	0xbd183713	-0.037161898
7	0x3cc09a1c	0.023510985
8	0xbd4331b7	-0.047654834
9	0xbd4803a4	-0.048831597
10	0xbc9a2bbf	-0.018819688
11	0x3a80558f	0.0009791123
12	0xbc8f9313	-0.017526185
13	0xbca96c61	-0.020681562
14	0x3b6ab097	0.0035810822
15	0xbbd4bba8	-0.006492097
16	0xbc195733	-0.009359169
17	0xbca17268	-0.019707873
18	0xbc95fc59	-0.018308805
19	0xbb2051fa	-0.0024462924
20	0xbd12c08c	-0.03582816
21	0xbd47cf54	-0.048781708
22	0x3bb4cc8f	0.0055175493
23	0x3c622698	0.013803147
24	0xbbb3c879	-0.0054865447
25	0xbcf0239b	-0.029313853
26	0xbbde8e80	-0.0067918897
27	0xbc7ea4f2	-0.015542256
28	0xbd2a927d	-0.04164361
29	0xbc30e370	-0.010796413
30	0x3ade9ef5	0.0016984629
31	0xbc49bdf2	-0.012313353
32	0xbcdaa1c1	-0.026688458
33	0xbc81645c	-0.015794925
34	0xbcd32711	-0.025775464
35	0xbcfbce2e	-0.030737963
36	0x3c58ad65	0.013224934
37	0x3c1a2558	0.0094083175
38	0x3cb72f0b	0.022361299
39	0xbd017825	-0.03160872
40	0xbca81640	-0.020518422
41	0xbcc4318a	-0.023949403
42	0xbbb12f03	-0.0054072156
43	0xbcbf0003	-0.023315435
44	0x3cbc6420	0.022996962
45	0xbc88b9ae	-0.016690101
46	0xbceb2b57	-0.02870719
47	0xbcbabba8	-0.02279456
48	0x3c9439be	0.01809394
49	0x3c9272ec	0.017877065
50	0xbcad8150	-0.021179825
51	0xb9926d33	-0.0002792865
52	0x3ccd8436	0.025087457
53	0x3bd4ae35	0.0064904937
54	0x3c9542cc	0.018220328
55	0xbcab93a9	-0.020944433
56	0x3ba15a18	0.00492407
57	0x3ce46614	0.027880706
58	0xbcdbd608	-0.026835456
59	0x3cd0e028	0.025497511
60	0xbccf58ed	-0.025310958
61	0xbd1fbabf	-0.038996454
62	0xbabe32d0	-0.0014510993
63	0x3b384cae	0.0028121877
64	0x3b8d85fe	0.0043189516
65	0xbc902eaf	-0.017600385
66	0xbc3daa5b	-0.01157626
67	0x3b4d4ad5	0.003132512
68	0xbc1789c0	-0.009249151
69	0xbd135500	-0.035969734
70	0x3ccf1c06	0.025281917
71	0xbc876872	-0.016529296
72	0xbcd6f07e	-0.026237722
73	0x3cb60eae	0.022223797
74	0xbcab064c	-0.020877026
75	0x3c7c5733	0.015401649
76	0x3c618bad	0.013766211
77	0xbcce4749	-0.025180476
78	0xbcf45b4d	-0.029828692
79	0xbcb21a30	-0.021741003
80	0xbc1250f6	-0.008930435
81	0x3cc368f0	0.023853749
82	0xbbe0d3de	-0.006861194
83	0xbc6cf767	-0.014463282
84	0xbc6ace69	-0.014331439
85	0xbd137c17	-0.036007013
86	0x3c9441d6	0.0180978
87	0xbbaf2882	-0.005345405
88	0xbcf0ab70	-0.029378623
89	0xbcd546b0	-0.026034683
90	0x3c678da5	0.014132892
91	0x3c1f5571	0.009724961
92	0x3c70b7eb	0.014692287
93	0xbc09aa7a	-0.008402461
94	0xbc38161c	-0.01123574
95	0x3ba62a6d	0.0050709755
96	0xbbb429c1	-0.0054981415
97	0xbc76c519	-0.01506164
98	0x3b187f26	0.0023269146
99	0xbc8fab96	-0.017537873
100	0xbcae8bc8	-0.021306887
101	0xbbdee64c	-0.006802356
102	0xbcb3b484	-0.021936662
103	0xbb8f6834	-0.0043764357
104	0x3b9eb168	0.004842926
105	0x3cf6d6bc	0.03013169
106	0x3c114e10	0.008868709
107	0xb93cd780	-0.00018009357
108	0xbcb736ec	-0.022365056
109	0xbc4aa7be	-0.012369094
110	0xbba462fc	-0.0050166827
111	0xbcb5848a	-0.022157926
112	0x3bc44990	0.0059902146
113	0x3cb56f44	0.022147782
114	0x3c4c052b	0.012452404
115	0xbc511990	-0.012762442
116	0xbbf680dc	-0.0075226855
117	0x3cfb50dc	0.030678205
118	0xbba17408	-0.004927162
119	0xbce2682d	-0.027637566
120	0xb98daa40	-0.00027020462
121	0x3acd1260	0.0015645735
122	0xbc3b4e2e	-0.011432214
123	0xbb5aea50	-0.0033403821
124	0xbccd912c	-0.025093637
125	0x3b8df798	0.004332494
126	0xbcaef3a8	-0.021356419
127	0x3c2d8754	0.010591347
128	0x3cbdf1e2	0.023186628
129	0xbca2bf9c	-0.019866757
130	0xbc4567fa	-0.012048716
131	0x3b41f7c0	0.0029597133
132	0xbba62421	-0.005070225
133	0x3c53d5ce	0.012929393
134	0xbbe407f1	-0.0069589545
135	0xba1f8cf8	-0.00060863746
136	0xbc5fdc7a	-0.013663406
137	0x3b9f082c	0.004853269
138	0x3b87e592	0.00414724
139	0xbcff226d	-0.031144345
140	0x3c2216f7	0.009893171
141	0xbc3bc40b	-0.0114603145
142	0x3cb7d9af	0.022442667
143	0xbd12068e	-0.035650782
144	0xbc05d362	-0.008168073
145	0x3c100a52	0.008791523
146	0x3c83a736	0.016070943
147	0xbb9bce46	-0.0047548143
148	0xbcb38198	-0.021912381
149	0xbcecf2b5	-0.028924325
150	0xbce94a9c	-0.02847796
151	0x3c9e3391	0.019311698
152	0xbd02d32d	-0.031939674
153	0xbc8da366	-0.017289829
154	0x3c340d92	0.010989564
155	0x3c3ff085	0.011715059
156	0xbd03350f	-0.032033022
157	0x3a7756fa	0.0009435263
158	0xbb225897	-0.0024772042
159	0x3cbd2112	0.023087058
160	0xbbccac46	-0.0062461225
161	0x3c0253e6	0.007954573
162	0xbc9dc33a	-0.01925813
163	0x3cb6c575	0.022310952
164	0xbc073d3e	-0.008254347
165	0xbcc694d1	-0.024240883
166	0x39fe009b	0.00048447106
167	0xbcb0035c	-0.021485977
168	0x3b23b973	0.0024982363
169	0x3cad0bee	0.021123853
170	0xbcee78bb	-0.029110303
171	0xbce1f5e5	-0.027583072
172	0xbbb84787	-0.005623761
173	0xbbe509aa	-0.0069896774
174	0xbc719443	-0.014744821
175	0x3ca87c7d	0.020567173
176	0x3c0cf89d	0.008604196
177	0xbc7c38e8	-0.015394427
178	0xba3fd16c	-0.0007317278
179	0xbc20ae7b	-0.009807224
180	0xbca35410	-0.019937545
181	0x3bf321f3	0.0074198185
182	0xbcd0bd10	-0.025480777
183	0xbad7437f	-0.0016423314
184	0x3c8089f2	0.015690777
185	0xbd0db900	-0.034600258
186	0xbb7bd693	-0.0038427457
187	0x3cbe5cf8	0.02323769
188	0x3c0ea400	0.008706093
189	0xbc8df135	-0.01732693
190	0xb9a90183	-0.00032235318
191	0xbd04a2b3	-0.032381725
192	0xb974f4cf	-0.00023360852
193	0x3cb0d1a4	0.02158434
194	0x3cb0898d	0.021549964
195	0xbbd8e7bc	-0.0066194218
196	0x3b23d273	0.0024997264
197	0xbc28bc2b	-0.010298769
198	0xbcea24c7	-0.02858199
199	0xbc860477	-0.01635955
200	0xbd19c625	-0.03754248
201	0xbb94620e	-0.0045282906
202	0xbc5ff71e	-0.013669757
203	0xbccf345f	-0.025293527
204	0xbbf5b37b	-0.0074982024
205	0xbd1c2237	-0.038118567
206	0x3b638147	0.0034714506
207	0xbc8bcb33	-0.017064666
208	0x3c48f08a	0.01226438
209	0xbd3c320e	-0.045946173
210	0xbd2fb32f	-0.042895492
211	0xbc83bcb1	-0.016081186
212	0x3c3c35ce	0.011487437
213	0xbce3cb21	-0.02780682
214	0xbc09c80e	-0.008409513
215	0x3b7dc95c	0.0038724756
216	0xbca90326	-0.020631384
217	0x3cb02017	0.021499677
218	0xbbb5d67a	-0.0055492492
219	0xbd202f41	-0.039107565
220	0xbd10eb11	-0.035380427
221	0xbd27716e	-0.04087966
222	0xbcc82c67	-0.024435235
223	0xbc908b8a	-0.017644662
224	0x3c23c894	0.009996552
225	0xbd3f6c21	-0.04673398
226	0x3caedade	0.021344598
227	0xbd0bd71b	-0.034140687
228	0xbc752209	-0.014961728
229	0xbca37aca	-0.019956011
230	0x39e15480	0.00042978302
231	0xbd0ba388	-0.034091502
232	0xbcda86bd	-0.026675576
233	0xbb9310c8	-0.0044880845
234	0x3c2725c1	0.010201872
235	0xbc7b817c	-0.015350696
236	0x3b8ebe8c	0.004356211
237	0xbc712008	-0.0147171095
238	0xbd1463d2	-0.03622801
239	0xbaeb48f4	-0.0017950819
240	0xbc402c44	-0.011729304
241	0x3c5591b7	0.013035229
242	0x3c773480	0.015088201
243	0x3c74e5d3	0.0149473725
244	0x3c66d74f	0.0140894195
245	0xbceddd0b	-0.029036066
246	0xbcf616e8	-0.03004022
247	0xbae6547b	-0.0017572785
248	0x3b76457f	0.0037578044
249	0xbced7f3f	-0.02899134
250	0x3ca287c0	0.019840121
251	0xbc5cc5e4	-0.013474915
252	0xbcbe3863	-0.023220247
253	0x3c827117	0.015923066
254	0x3cb24f5d	0.021766359
255	0xb9eff6ff	-0.0004576966

classifier.0.bias f4 [120]
0	0xbcba26eb	-0.022723636
1	0x3e0c37e2	0.13693193
2	0x3dcb738b	0.099341474
3	0xbd85c0ec	-0.065309376
4	0xbd42809c	-0.047485933
5	0x3cc73278	0.024316058
6	0xbda262c0	-0.07928991
7	0x3e04a87d	0.12954898
8	0xbd19fd99	-0.037595365
9	0xbb7b60e3	-0.003835731
10	0xbd7c3bf0	-0.0615806
11	0xbc26db48	-0.010184117
12	0xbd500303	-0.050784122
13	0xbcf93544	-0.030420907
14	0x3f2ad48a	0.6673056
15	0x3ee333ca	0.4437545
16	0x3fb0e0a2	1.3818552
17	0xbd0c64a4	-0.034275666
18	0x3f27a0f7	0.6547999
19	0x3e7e2a73	0.2482088
20	0xbcaf1d33	-0.021376228
21	0xbdc40192	-0.09570612
22	0x3e1f8894	0.15579444
23	0x3d179eb4	0.037016585
24	0xbcf8477a	-0.03030752
25	0xbda7d116	-0.08194177
26	0xbd22ddfe	-0.03976249
27	0xbaa40b15	-0.001251551
28	0x3dffe128	0.12494117
29	0xbd529f4f	-0.05142146
30	0x3cb8381e	0.022487696
31	0x3e6f4c00	0.23368835
32	0xbe259386	-0.16169557
33	0x3e617f83	0.22021298
34	0xbc371595	-0.011174579
35	0xbe799e8f	-0.24376892
36	0x373167c2	1.057418e-05
37	0xbd89b33b	-0.067236386
38	0x3e3cba03	0.18430333
39	0x3e8d1cb9	0.27560976
40	0x3e16b8b5	0.14718898
41	0xbcef5a99	-0.029218005
42	0x3e37091c	0.17874569
43	0xbd67bcd1	-0.056576554
44	0xbd39f97f	-0.045403954
45	0xbe0a2447	-0.13490401
46	0x3f1b6926	0.6070732
47	0x3e259e1b	0.16173594
48	0x3d7938e6	0.06084528
49	0xbc89567e	-0.016764876
50	0x3d2a6f87	0.041610267
51	0x3c984d4f	0.018591551
52	0x3e4b6040	0.19860935
53	0x3e82685c	0.25470245
54	0x3d9ae037	0.07562297
55	0xbce0b00e	-0.0274277
56	0x3c9ec0b5	0.019379
57	0x3d7a59cf	0.061120804
58	0x3df8063f	0.12110566
59	0x3e80ffd1	0.25195172
60	0xbd389783	-0.045066368
61	0x3db79b31	0.08965147
62	0x3f786dd9	0.97042614
63	0x3bda1a52	0.0066559697
64	0xbc2ea3f8	-0.01065921
65	0x3f0c50fa	0.5481106
66	0xbc89f738	-0.016841516
67	0xbced0d2c	-0.028936945
68	0xbdce2b7e	-0.10066889
69	0x3e712fee	0.2355344
70	0x3dabc75b	0.083876334
71	0x3bcf1c4c	0.006320512
72	0x3df589f5	0.11989204
73	0x3dcca89a	0.09993096
74	0xbc7604ff	-0.01501584
75	0xbcfbc013	-0.030731237
76	0x3e80005b	0.2500027
77	0x3d80a99d	0.06282351
78	0xbe220d7e	-0.1582546
79	0xbdd30ae6	-0.10304813
80	0x3d9757e4	0.07389811
81	0xbd33e142	-0.043915994
82	0x3e420f38	0.18951118
83	0x3e2f63b3	0.17127876
84	0x3e485a97	0.19565807
85	0x3e723014	0.23651153
86	0xbd41f482	-0.04735232
87	0xbd4b2bfd	-0.049602497
88	0xbbdc537b	-0.006723819
89	0xbd5626e4	-0.052283183
90	0xbd222a08	-0.039590865
91	0xbdd2c459	-0.102913566
92	0x3dbb4207	0.09143453
93	0xbdae5ed5	-0.085141815
94	0x3f724bbc	0.9464681
95	0xbdd1c397	-0.10242384
96	0x3d48a17e	0.048982136
97	0xbd40bc53	-0.0470546
98	0xbd060c85	-0.032726783
99	0xbda835c8	-0.08213383
100	0x3b9cdcf2	0.004787081
101	0x3e6159dc	0.22006935
102	0xbe20bdea	-0.15697446
103	0xbc58a5ab	-0.013223092
104	0x3db01164	0.08597067
105	0xbd59e156	-0.053193413
106	0x3c0db0d8	0.00864812
107	0xbd5d4f20	-0.054030538
108	0xbd18603c	-0.03720115
109	0xbc8a2abd	-0.016866082
110	0x3eaef98a	0.34174758
111	0xbdbf125b	-0.09329673
112	0xbd8659e7	-0.06560116
113	0x3e7e4019	0.24829139
114	0x3b359df9	0.0027712567
115	0x3d11a2fb	0.03555582
116	0x3e9375b4	0.28800738
117	0x3e519bbc	0.20469564
118	0x3d3c11dd	0.045915473
119	0x3c765bb5	0.015036513

classifier.2.weight f4 [84, 120]
0	0x3c138a20	0.0090051
1	0x3d872377	0.06598561
2	0xbdc116f4	-0.09428206
3	0xbd87aa01	-0.066242225
4	0xbcaacb37	-0.020848854
5	0xbe7b41ef	-0.2453687
6	0xbe0e7551	-0.1391194
7	0xbd378eb8	-0.04481384
8	0x3d9dd954	0.07707468
9	0x3c997e88	0.018737093
10	0xbe02494a	-0.1272327
11	0x3d975636	0.0738949
12	0xbd4c2ec7	-0.049849298
13	0x3ceba420	0.028764784
14	0x3d284737	0.04108354
15	0xbbdc5e6e	-0.006725124
16	0xbd2e3d09	-0.042538676
17	0xbdb9c865	-0.09071425
18	0xbd96c070	-0.07360923
19	0x3c6ba416	0.014382383
20	0x3c25a018	0.01010897
21	0xbc74d192	-0.014942544
22	0xbd30531e	-0.043048017
23	0xbd3f38ad	-0.04668491
24	0xbdb48905	-0.08815197
25	0xbd66e2ba	-0.056368567
26	0x3d616824	0.055030957
27	0xbdc41c51	-0.095757134
28	0x3d4f805e	0.05065953
29	0xbe6d77ad	-0.23190184
30	0xbd92c084	-0.07165626
31	0x3bc00f35	0.005861188
32	0x3d413843	0.047172796
33	0xbcd66954	-0.026173271
34	0xbceaed8b	-0.028677722
35	0xbd20eee8	-0.03929034
36	0xbd501167	-0.050797846
37	0xbd777d69	-0.060422335
38	0xbd930104	-0.07177928
39	0x3d6a3b89	0.057185683
40	0x3d6f80af	0.05847233
41	0xbd854f0c	-0.065092176
42	0x3bb86d4f	0.005628265
43	0x3d938c1a	0.072044566
44	0x3c8cdc07	0.017194761
45	0xbcb08225	-0.021546433
46	0xbbba0b06	-0.0056775836
47	0x3d375cd5	0.044766266
48	0x3d86df24	0.065855294
49	0xbda47e18	-0.08031863
50	0xbd449475	-0.047993142
51	0xbd9eccd9	-0.07753915
52	0xbc00d718	-0.007863782
53	0x3d74d872	0.05977673
54	0x3b52c592	0.0032161218
55	0x3da8a93e	0.082354054
56	0xbd012754	-0.031531647
57	0x3c53a12d	0.012916845
58	0xbd8ca2d2	-0.06866993
59	0x3d18efb2	0.037337966
60	0x3da080ca	0.078370646
61	0x3cda2b24	0.0266319
62	0x3d108af6	0.035288773
63	0xbe1a9888	-0.15097249
64	0x3b56809e	0.003273047
65	0xbcd4fab3	-0.025998449
66	0x3cef9a3c	0.02924835
67	0x3d9d1c04	0.07671359
68	0xbe9753ac	-0.29556024
69	0x3b0d67fc	0.0021576872
70	0x3d48f410	0.04906088
71	0x3d675d77	0.05648562
72	0x38007189	3.0623316e-05
73	0xbdb7ff29	-0.08984215
74	0x3cd68ef8	0.02619122
75	0x3d5cf0a8	0.053940445
76	0xbd16183b	-0.0366442
77	0xbe1e4cdc	-0.15459007
78	0xbe926299	-0.2859085
79	0x3cad8566	0.021181773
80	0xbd7ab4e0	-0.061207652
81	0x3bae3551	0.0053164144
82	0x3cc91fdb	0.024551323
83	0x3cf131e4	0.029442735
84	0x3d2bc945	0.041939992
85	0xbd869e0e	-0.06573115
86	0xbdf4bb20	-0.11949754
87	0xbebc44e5	-0.36771312
88	0x3c373c49	0.011183807
89	0xbd206866	-0.039162062
90	0xbd52ec51	-0.0514949
91	0xbed6eecc	-0.41979063
92	0xbda07ffc	-0.07836911
93	0xbe468957	-0.19388328
94	0xbd888168	-0.06665307
95	0xbda74ee1	-0.08169342
96	0x3998f808	0.00029176497
97	0xbeb1dc7e	-0.34738535
98	0xbe1b5f75	-0.15173133
99	0x3c51e9fe	0.012812136
100	0xbdc5122d	-0.096226074
101	0xbda1224b	-0.07867869
102	0x3d94f069	0.07272417
103	0x3da17820	0.0788424
104	0xbd48105d	-0.04884373
105	0x3d2c8800	0.042121887
106	0x3d3f65ea	0.046728052
107	0xbc0ca62f	-0.008584543
108	0x3d291f3a	0.041289546
109	0x3d80d65b	0.06290885
110	0x3d1c7bc4	0.03820397
111	0xbd46d578	-0.048543423
112	0xbe2c689b	-0.16836779
113	0x3bfec0b5	0.0077744373
114	0x3d9d15d8	0.07670182
115	0x3cdbd18d	0.02683332
116	0xbe0e9ca7	-0.13926946
117	0x3d8ada4d	0.06779919
118	0x3b75a3ef	0.0037481745
119	0xbda18a93	-0.07887759
120	0xbd960f56	-0.07327144
121	0x3e6b1e5b	0.22960798
122	0xbe39a6dd	-0.1813006
123	0x3c9857ed	0.018596614
124	0x3e8c4eb7	0.27403805
125	0x3e09306a	0.13397375
126	0x3d1a037f	0.03760099
127	0xbe4d2264	-0.2003265
128	0xbd960a5f	-0.07326197
129	0x3d6b9ae9	0.05752078
130	0x3e1c0b8f	0.15238784
131	0xbd53e64a	-0.051733293
132	0x3d07b15e	0.033128135
133	0x3cb6db30	0.022321314
134	0x3d907522	0.07053591
135	0x3f05af96	0.5222105
136	0x3fa9b990	1.3259754
137	0x3db689d5	0.08913008
138	0x3e2cf659	0.16890849
139	0xbe386bee	-0.18009922
140	0x3d469510	0.048482
141	0x3d2337ef	0.039848264
142	0x3d0c112c	0.034196064
143	0xbe4dc902	-0.2009621
144	0x3e23e3ba	0.1600484
145	0x3cddbe77	0.02706836
146	0x3e6bab10	0.23014474
147	0xbdb4fb89	-0.08837039
148	0xbe2354b9	-0.15950288
149	0x3e0bace1	0.13640167
150	0xbe69f94b	-0.22849004
151	0xbe49df39	-0.19714059
152	0xbd17c754	-0.03705533
153	0xbd07c4ea	-0.033146776
154	0x3d8fdf62	0.07025029
155	0x3d1e1206	0.038591407
156	0xbdfd4157	-0.12365978
157	0x3d93b501	0.07212258
158	0xbd889619	-0.06669254
159	0xbe57bb40	-0.21067524
160	0xbc06809e	-0.008209376
161	0xbd364cab	-0.04450671
162	0x3bb4d786	0.0055188565
163	0x3dd66fe7	0.104705624
164	0x3c6a8a51	0.014315204
165	0x3ba770f7	0.005109902
166	0x3dd1b8d7	0.102403335
167	0xbcdad0f5	-0.026710967
168	0xbc8b3b2a	-0.016995985
169	0x3d6719bf	0.056421038
170	0x3ea05ff3	0.31323203
171	0xbe222187	-0.15833102
172	0xbe74935b	-0.23884337
173	0xbe9fa470	-0.31180143
174	0xbdd62dbe	-0.104579434
175	0x3d7e2c0b	0.06205372
176	0x3de44843	0.11146595
177	0xbe3a979e	-0.182219
178	0xbdace8fc	-0.08442876
179	0xbe4bd8cb	-0.19906919
180	0xbd9a7bf2	-0.07543172
181	0x3c5f2a6d	0.013620955
182	0x3e919485	0.28433624
183	0x3d29a2e3	0.041415107
184	0x3e319176	0.17340645
185	0x3edefbdd	0.4355153
186	0x3e80cfbc	0.2515849
187	0x3d941718	0.07230967
188	0x3dade599	0.08491058
189	0x3d331bc8	0.043727666
190	0x3e1436e0	0.14474058
191	0xbeb1dd43	-0.34739122
192	0xbe14602f	-0.14489816
193	0x3dc47e4d	0.095944025
194	0x3ba22257	0.0049479413
195	0x3d98fe67	0.074703984
196	0xbe8c0479	-0.27347162
197	0xbb7f00cf	-0.0038910394
198	0x3d75d18f	0.060014304
199	0xbd82d528	-0.063883126
200	0xbc8bcc30	-0.017065138
201	0xbd9f5469	-0.07779772
202	0x3c928526	0.017885756
203	0x3e5e6b66	0.21720657
204	0xbe212c74	-0.15739614
205	0x3d7884c9	0.06067351
206	0xbe25e0a8	-0.16198981
207	0xbbe17e38	-0.0068815015
208	0xbd866a5c	-0.06563255
209	0xbd89354a	-0.06699617
210	0x3c719afd	0.014746425
211	0x3ea6736f	0.32509944
212	0x3e27f552	0.16402176
213	0x3e7a26f7	0.24428926
214	0x3f46633a	0.7749516
215	0x3db125e3	0.086498044
216	0xbd7a775e	-0.061148994
217	0xbd9794fe	-0.07401465
218	0x3d53124e	0.05153113
219	0xbc88a5df	-0.016680656
220	0x3e533556	0.20625815
221	0xbec8d383	-0.3922387
222	0xbe549ac3	-0.20762162
223	0x3ccdc7e0	0.025119722
224	0xbe68c287	-0.22730456
225	0xbcda2da1	-0.026633086
226	0xbdc4e5ce	-0.09614144
227	0xbd617384	-0.055041805
228	0xbd2f2446	-0.042759202
229	0x3cef9c05	0.0292492
230	0x3e6c4029	0.2307135
231	0x3e08ab15	0.13346513
232	0xbddcddd5	-0.107844986
233	0xbd43280c	-0.047645614
234	0x3c306821	0.010767014
235	0xbb826b60	-0.0039800853
236	0x3e295122	0.16534856
237	0x3d01e080	0.03170824
238	0x3e423eb5	0.18969233
239	0x3d232c8d	0.03983741
240	0xbdab4e46	-0.08364539
241	0xbe877185	-0.26453796
242	0xbe34cb58	-0.17655694
243	0x3da3391c	0.07969877
244	0xbdd2c58d	-0.10291586
245	0xbd3ed3db	-0.04658876
246	0xbe2125c2	-0.1573706
247	0xbe5e810f	-0.2172892
248	0xbda94f13	-0.08267035
249	0x3b473a19	0.003039962
250	0xbeba10bb	-0.3634089
251	0x3b189fa5	0.0023288515
252	0x3d6cf793	0.057853293
253	0xbd99102b	-0.07473787
254	0x3edc96c7	0.43083784
255	0x3fb7a10b	1.4346021

classifier.2.bias f4 [84]
0	0xbd4fe64a	-0.05075673
1	0x3e373ed2	0.17895058
2	0xbea33875	-0.3187901
3	0xbb86d0ab	-0.0041142306
4	0xbc775edd	-0.015098301
5	0x3d044ada	0.032297947
6	0xbe2082d8	-0.15674913
7	0xbc4b50ae	-0.012409372
8	0xbd96a959	-0.07356519
9	0xbe0cd1da	-0.13751927
10	0x3d3b749c	0.045765504
11	0xbdc49bf2	-0.09600057
12	0x3daba16b	0.083803974
13	0xbde9d5d9	-0.11417741
14	0xbd848dc3	-0.064723514
15	0xbe135c4a	-0.14390674
16	0x3dc5dbba	0.0966105
17	0x3ddb684b	0.10713252
18	0xbd20a1f0	-0.039216936
19	0xbafd4cbb	-0.0019325236
20	0x3e2832b4	0.16425592
21	0xbb18cb44	-0.0023314515
22	0x3df0c94b	0.117571436
23	0x3e20e7c8	0.15713418
24	0x3cbc19ae	0.022961464
25	0xbdaa926d	-0.0832871
26	0xbe159193	-0.14606313
27	0xbd6a2c33	-0.057171058
28	0xbd6e7dc2	-0.0582254
29	0xbe29f483	-0.1659718
30	0xbe0ab5a1	-0.13545848
31	0xbde57cd0	-0.11205447
32	0xbe2f9051	-0.17144896
33	0xbe08ed1b	-0.13371699
34	0x3ccad2bc	0.02475869
35	0x3e033698	0.12813795
36	0xbdf7e669	-0.12104494
37	0x3e1bba54	0.15207797
38	0xbccc7281	-0.024956943
39	0xbceff4e5	-0.02929158
40	0x3c7c2864	0.015390489
41	0x3ba1804a	0.0049286233
42	0x3ea2398a	0.31684524
43	0x3d284d88	0.041089565
44	0xbdc11bce	-0.094291314
45	0x3df70ece	0.12063371
46	0xbccc367f	-0.02492833
47	0xbd088483	-0.033329498
48	0xbdf59d8d	-0.11992941
49	0xbdded614	-0.10880676
50	0xbe1b31c7	-0.15155707
51	0xbe507925	-0.20358713
52	0xbe37fafb	-0.17966835
53	0xbb4fe0d7	-0.0031719708
54	0x3df59b16	0.11992471
55	0xbe192dcf	-0.14958881
56	0xbda1b5e6	-0.078960225
57	0xbde590be	-0.11209248
58	0xbc0e886d	-0.008699519
59	0xbe326b2c	-0.17423695
60	0xbda48155	-0.080324806
61	0x3d154a2c	0.03644769
62	0xbe21d872	-0.15805224
63	0xbe108af8	-0.14115512
64	0xbeaab600	-0.3334198
65	0xbd817b59	-0.06322355
66	0x3dbc5f8f	0.09197914
67	0xbd997bcf	-0.07494318
68	0xbe45b83d	-0.19308563
69	0xbcede472	-0.029039595
70	0xbdea22ea	-0.114324406
71	0x3dc6b03b	0.09701582
72	0xbdfdff4a	-0.12402208
73	0xbe10ac5e	-0.14128253
74	0xbd9b2cea	-0.07576926
75	0xbd4018ef	-0.04689878
76	0xbc6fa2da	-0.014626229
77	0x3dbfb39a	0.09360428
78	0x3e0b8dea	0.13628355
79	0xbe63b6b4	-0.22237664
80	0xbd8391a7	-0.06424265
81	0xbbecb60e	-0.007223851
82	0xbb48f02e	-0.0030660736
83	0xbbf7bf51	-0.0075606485

classifier.4.weight f4 [2, 84]
0	0xbb1f2598	-0.0024283882
1	0xbda4d4df	-0.080484144
2	0x3dac7774	0.084212214
3	0x3d01003a	0.031494357
4	0xbd3244e2	-0.043522723
5	0x3ccfbaa7	0.025357557
6	0x3d8998e6	0.06718616
7	0x3db3a993	0.08772578
8	0x3d521516	0.05128964
9	0xbd93eaaf	-0.07222497
10	0xbd13b024	-0.036056653
11	0xbd7f2647	-0.062292363
12	0x3c3e812e	0.0116274785
13	0xbcf34821	-0.02969748
14	0x3dd70a0c	0.10499963
15	0xbbe00607	-0.006836656
16	0x3ca89b61	0.020581903
17	0xbc5bf46b	-0.013424973
18	0x3a014b9d	0.0004932227
19	0xbdc3487f	-0.09535312
20	0x3cd69083	0.026191955
21	0xbd57094b	-0.052499097
22	0xbe2b15eb	-0.1670758
23	0xbd1baea5	-0.03800835
24	0xbcccefbd	-0.02501666
25	0x3d1ebfcd	0.038757134
26	0xbd2595a0	-0.040425897
27	0xbcf5fecb	-0.030028721
28	0x3bdc0f19	0.006715667
29	0xbde07b59	-0.10961027
30	0xbc4e4f29	-0.012592115
31	0xbdd683c4	-0.10474351
32	0xbc5faedb	-0.013652529
33	0x3d1db89a	0.038506128
34	0x3bb37bad	0.00547739
35	0x3b82732c	0.0039810147
36	0x3d068f3c	0.032851443
37	0xbdada2db	-0.08478328
38	0xbb5632c2	-0.0032684063
39	0x3c1d10c6	0.009586519
40	0x3b5da9bf	0.00338231
41	0x3d2d602b	0.04232804
42	0x3e482f3d	0.1954927
43	0x3c689c98	0.014197491
44	0x3d899e74	0.06719676
45	0x3da0a231	0.078434356
46	0x3d6a33af	0.057178196
47	0xbcfe2b3b	-0.031026473
48	0x3c6f1480	0.01459229
49	0xbd212af6	-0.03934761
50	0xbb8dc36b	-0.004326274
51	0x3d771c98	0.060330003
52	0x3a9a0ee5	0.0011753706
53	0x3bad1085	0.0052815103
54	0xbc7fad0c	-0.015605222
55	0x3ce2ed41	0.027701022
56	0xba2209c1	-0.0006181263
57	0x3ca87d87	0.020567669
58	0xbbcdf29f	-0.006285026
59	0x3d176215	0.036958773
60	0x3ca3c80e	0.019992854
61	0x3dbd9d9c	0.09258577
62	0xbd425a98	-0.04744968
63	0xbde874c4	-0.11350396
64	0xbda286e8	-0.079358876
65	0x3cdfdf68	0.027328208
66	0x3b5670cb	0.0032721038
67	0xbb9c9417	-0.004778396
68	0x3d26834f	0.04065257
69	0x3c68319b	0.014171983
70	0xbcfd8a5a	-0.03094976
71	0x3d4230b5	0.047409732
72	0x3d9ca2a2	0.07648207
73	0x3d26025b	0.04052959
74	0xbe1332ee	-0.14374897
75	0x3d5ee161	0.054414157
76	0x3d8acdc2	0.067775264
77	0xbd865b4a	-0.06560381
78	0x3e08ba25	0.13352259
79	0xbe4291fe	-0.19001004
80	0x3e089336	0.13337407
81	0xbda87e86	-0.082272574
82	0xbda4a6e7	-0.080396466
83	0x3d8b44ff	0.06800269
84	0x3d6d0e17	0.057874765
85	0x3d28aa45	0.041178007
86	0xbced6dc8	-0.028983012
87	0x3d45eddc	0.048322544
88	0x3b74f559	0.0037377684
89	0xbb7a071f	-0.0038151217
90	0x3d703dab	0.05865256
91	0x3d873821	0.066025026
92	0xb9a3255a	-0.00031117612
93	0xbd3f8216	-0.04675492
94	0xbd497cb5	-0.049191196
95	0xbd6b3999	-0.057427976
96	0x3d1f9330	0.03895873
97	0xbd8b4852	-0.068009034
98	0x3d12161c	0.035665616
99	0xbd20dce2	-0.03927315
100	0x3d21b743	0.039481413
101	0x3d0053d7	0.031329956
102	0x3c6faaaa	0.014628092
103	0x3d8c75ce	0.06858407
104	0xbce805ef	-0.028323142
105	0xbd7c5b19	-0.061610315
106	0xbc8033a4	-0.015649624
107	0xbcf08e62	-0.029364768
108	0xbbbb8a4b	-0.005723273
109	0x3d88b91b	0.06675931
110	0xbd7ff2e1	-0.062487487
111	0xbd11c09b	-0.035584074
112	0x3c365576	0.011128774
113	0x3e69a8db	0.2281832
114	0xbc944b31	-0.01810226
115	0xbdc0f711	-0.09422124
116	0xbbdebfa1	-0.0067977463
117	0x3ce89044	0.028389104
118	0xbb84b234	-0.004049564
119	0xbdc0fb9b	-0.0942299
120	0x3c3c87ce	0.011506988
121	0x3da8deb4	0.08245602
122	0xbd00c98e	-0.031442218
123	0xba9966db	-0.0011703627
124	0xbc1684ec	-0.0091869645
125	0x3d51eb18	0.051249593
126	0xbe37ba67	-0.179422
127	0x3d112544	0.03543593
128	0xbdef8c80	-0.1169672
129	0xbb72427b	-0.0036965895
130	0x3d9e480c	0.077285856
131	0x3c17deb3	0.009269404
132	0xbd18bcda	-0.037289478
133	0xbd256ad0	-0.040385067
134	0xbc720cd4	-0.014773566
135	0x3d17e980	0.037087917
136	0x3caad74e	0.020854618
137	0xbba27605	-0.0049579167
138	0xbd572bcf	-0.052532014
139	0x3d286929	0.041115914
140	0x3ca748e8	0.020420507
141	0xbc8a594f	-0.016888289
142	0x3c5c1c43	0.0134344725
143	0x3d112e1c	0.035444364
144	0x3c34f5cc	0.011044931
145	0x3dda952e	0.10672985
146	0x3e3cf02e	0.18450996
147	0xbcaf0f9d	-0.02136975
148	0x3d9749ee	0.07387148
149	0x3da9e987	0.08296495
150	0xbc4865a1	-0.0122312615
151	0xbc3162b8	-0.010826759
152	0x3ca4185e	0.02003115
153	0xbcb4a310	-0.02205041
154	0xbd46ed1e	-0.048565976
155	0x3d5d2f44	0.054000154
156	0x3dc815f2	0.09769811
157	0x3d289e38	0.041166514
158	0xbcc130e0	-0.023582876
159	0x3dc58552	0.096445695
160	0x3d3f438a	0.04669527
161	0xbda52351	-0.08063377
162	0xbe1ca989	-0.15299048
163	0x3db79ff0	0.089660525
164	0x3d9e36d2	0.077253
165	0xbd78c441	-0.060734037
166	0xbda75881	-0.08171178
167	0x3dafb02a	0.085785225

classifier.4.bias f4 [2]
0	0x3dadb88c	0.08482465
1	0x3dafdf71	0.0858754
